temp/chrome/optimization_guide_model_store/45/E6DC4029A1E4B4C1/CF63CE79D83470AD/model.tflite (tflite, 131736 bytes, 9 tensors)

arith.constant f4 [192]
00000000: af1c d2bc ebcf d0bd 5cee f93b 3d67 293d
00000010: 826e b8bd 0104 a8bd e165 cbbd 6c70 ce3c
00000020: 467f 6b3c 7136 d0bc 305d 063d d6c8 a7bd
00000030: 2609 e5bd 8a80 37bd 8b00 acbd 8605 bcbd
00000040: 4d44 0abd 5200 94bd 6406 34bd 813c 1dbd
00000050: be86 d5bd b784 47bc 8a6e 083d 68fa 82bd
00000060: 5865 d3bc 338b a1bd 4a8f 19be 0537 88bd
00000070: c950 753b 2dcf f5bd b793 a5bd 3697 80bd
00000080: 25ff b5bd a55a 543a 6a46 c4bc 8330 23bd
00000090: 3b63 4ebd c44d 28bd 6a1d 2fbd 71c0 febd
000000a0: f464 963c ef5a 813c e027 c2bb 335a 56bc
000000b0: 85d2 0ebe 9ca7 f0bc 20e8 edbc 5c6d b2bc
000000c0: dd7a 41bd dc74 1bbd cc62 40bc ffaa 85bd
000000d0: cbff 36be b745 04bd b000 b5ba 97c3 ed3b
000000e0: d1ff 80bc 5a6b ba3b 6cde 45bd 0c23 76bd
000000f0: 95ba 5abd c046 1abd 119b b6bd 0c0c 46bd
00000100: fe31 23bd 7969 8bbd bc04 b4bd fa07 273d
00000110: bcc2 96bd b3ee 913c 42c9 32bc 4f90 33bc
00000120: e3f5 9cbd 6b20 00be dea2 833b 459b e33c
00000130: 83be 02bd b19c 8cbd b171 42bd 313b 98bd
00000140: 5e01 5a3c d417 8e3c ab5e 6bbd c97f c3bd
00000150: bf9e 29bd 98df 1fbd fb7c dfbc 4849 683c
00000160: f2a1 0abd b84a c9bd 1b54 4fbd 1994 25bb
00000170: 46d3 4ebd 754c 943c 0d41 3abd f1bb 4abd
00000180: dae4 1c3b 1eb9 3e3b 7d7b 46bd dcda a6bc
00000190: 7a41 a3bd 8bb0 f7bc 1718 3cbd 9821 18bd
000001a0: 4d0f cfbd d24b 9bbd 4589 c3bd 0b4b d3bd
000001b0: 3905 723b bd0b 05bc 9ef5 c73c 7717 bfbc
000001c0: 4d21 6cbb 9813 cfbc 7d82 2fbd 95b4 84bc
000001d0: 95f4 a8bc 4170 b8bd fade 64bd acdb 0dbd
000001e0: 8601 73bd 7c7e b3bd 30e7 563c d1f9 73bd
000001f0: 3f17 c6bc 48a8 38bd fad5 9dbd 7902 0fbe
00000200: 1ac1 3ebd c4b3 8dbc f1ec f73b 5d0b 21bd
00000210: 8887 4dbd 68e6 2fbc 9377 febd fd24 18bb
00000220: 98f7 8e3b d0ca 89bc 3072 6abd bb28 b0bd
00000230: 6f48 5ebd 5b46 4cbd e951 21bd 4dfc 4c3c
00000240: bc3d a6bc 49f2 3bbd 9651 8bbd b47a 19bd
00000250: 80b7 ebbc 803d 8fbd 5bfe fbbc df28 03bd
00000260: 8ae9 29bd 9969 a5bd 0323 feba 5bc1 f73b
00000270: 2191 30bd 7d9d 26bd f699 81bd 6e42 81bd
00000280: 6d28 10bd de1d 1bbd ae04 24bd 44dd 6fbc
00000290: 53f6 5cbd 86e2 87bd 79b3 1cbb c80d dbbd
000002a0: ac64 b2bd 974d 2abd ac90 e1bc fe05 61bc
000002b0: cf85 3fbc 2f95 d4bd 3349 8ebd 4b89 c1bd
000002c0: b65c b9bc 6e76 cabd b3e0 17be 7e3b 0cbc
000002d0: 4c46 45bd eb98 67bd 8929 72bc 073c 19be
000002e0: 1794 d5bc f9dc 16bd d1a2 32bd 5cd3 cabd
000002f0: fc20 883b e9c4 cabc 9a79 70ba 68fa 193b
-0.025648443 -0.10195907 0.0076272916 0.04135822 -0.09005453 -0.08203889 -0.09931541 0.025200091
0.014373606 -0.025416585 0.032803714 -0.08192603 -0.111833856 -0.04480032 -0.08398541 -0.09180741
-0.033756543 -0.072266236 -0.043951407 -0.03838778 -0.10426091 -0.012177638 0.033308543 -0.063954175
-0.02580516 -0.07887878 -0.14996067 -0.06651119 0.0037432185 -0.12002406 -0.08084815 -0.06278841
-0.088865556 0.0008100665 -0.023959357 -0.039841186 -0.050387602 -0.041089788 -0.04275266 -0.12439049
0.018358685 0.01579043 -0.0059251636 -0.013083029 -0.13947494 -0.029376797 -0.02904135 -0.021780662
-0.047236312 -0.037953243 -0.011742305 -0.065267555 -0.17871015 -0.032293048 -0.0013809409 0.007255982
-0.015746983 0.005689067 -0.04830782 -0.060092017 -0.053400595 -0.03766513 -0.08916295 -0.048351333
-0.0398426 -0.06807227 -0.087899655 0.04077909 -0.073613614 0.017814016 -0.010912241 -0.010959699
-0.07664087 -0.12512366 0.004017218 0.027784 -0.031919967 -0.06865824 -0.047471706 -0.07433165
0.01330599 0.017345347 -0.05746333 -0.095458575 -0.041411158 -0.039031595 -0.027281275 0.014177628
-0.03384585 -0.098287046 -0.05061732 -0.0025265275 -0.050494455 0.018102864 -0.045472194 -0.04949564
0.0023940117 0.0029102038 -0.04845761 -0.020368032 -0.07971473 -0.03023555 -0.04592141 -0.037141412
-0.1011034 -0.07582821 -0.095476665 -0.10317048 0.0036929382 -0.008120474 0.024409112 -0.023326619
-0.003603059 -0.025277898 -0.042849053 -0.01619939 -0.020624438 -0.09005786 -0.05587671 -0.034633324
-0.059327625 -0.08764359 0.013116643 -0.059564415 -0.024181006 -0.04508236 -0.077068284 -0.13965787
-0.046570875 -0.017297633 0.0075660874 -0.039317477 -0.05017808 -0.0107360855 -0.12425151 -0.0023215406
0.0043630116 -0.016820341 -0.057237804 -0.08601519 -0.054268297 -0.049871784 -0.039384756 0.012511325
-0.02029311 -0.045885358 -0.06802671 -0.037470534 -0.028774023 -0.06994152 -0.030760935 -0.0320214
-0.041482486 -0.08076782 -0.0019389096 0.0075608916 -0.043107156 -0.040677536 -0.06328194 -0.063114986
-0.035194803 -0.03787028 -0.040043525 -0.014640156 -0.05394585 -0.06635003 -0.0023910685 -0.10695988
-0.08710608 -0.0415779 -0.027534805 -0.013734339 -0.011689617 -0.10380017 -0.069475554 -0.09450015
-0.022627216 -0.0988587 -0.1483181 -0.008559106 -0.048162743 -0.05654232 -0.014780411 -0.14964305
-0.026071591 -0.03683183 -0.043612305 -0.09903595 0.0041543227 -0.024752097 -0.00091733935 0.00234952

arith.constant2 f4 [128]
00000000: 7d6c 003d 8ef7 753c ce87 6e3d 5ad3 b33d
00000010: 1e6f 02bb e9b4 dabc e9b5 213d 8e98 903a
00000020: 109b b13d 6b0a 87b9 155f 03bd 1c18 b83d
00000030: e31a a1bb a676 8c3d 134d 3a3d 956c dbbc
00000040: 89da 703d 3d79 343d 3507 a33d 2ced 4e3d
00000050: 6402 b73c 47ab a53d efb4 053d 3c13 b03d
00000060: 3c20 9e3d 8f48 f73b 1dbf f93b c18a e73b
00000070: 8c5b a73d 901a 673c d843 133d a944 a63d
00000080: 1dde 253d 0502 e93c 7ae3 063d f8a6 99bb
00000090: 4d56 8a3d bfd9 1e3d a17f 163c 6f57 863d
000000a0: 8089 0ebd 9d78 903c 001c a83d 159d 24bc
000000b0: c23b 473d 47a5 813d d05c 243c 6f38 393d
000000c0: 8071 3e3d 386a 9e3d 32c1 183d 35aa 2e3c
000000d0: 223d 4a3d 980e 2a3d 92b6 9b3c ef47 89bc
000000e0: e63b 433d fcd6 06bc d526 dd3c 7e5d 213d
000000f0: 9042 abbc ecc8 49bd 586c fb3c 4a58 4dbd
00000100: 5b74 103d c74c 34bc 6f23 5e3c b25d 673d
00000110: a5e9 523d 5627 8e3d b0ee ef3c 76dd f5ba
00000120: 2489 233d 097a 303d c4ff 833d 23cf 7e3d
00000130: 69d8 67bd 86ed 393d a8ea 4a3d 24b0 af3c
00000140: 3606 823d 3583 16bc d7ae 7e3d dc1e 753d
00000150: 02e6 173d ca27 823d 1c6d 6d3d ba43 b1bc
00000160: 5b40 793c 2a04 113d fc6f 773d a539 773d
00000170: b314 8c3d 8ef8 d8bc ad5f 11bd 9cd6 583d
00000180: 61b9 4d3d 70fd 683d ea2d 8c3d 37f4 c23c
00000190: 3dcc 1d3d 9852 e33c e0b8 833d c80c 503d
000001a0: be55 55bc 04c0 54bc 1293 8d3c e19e 8e3d
000001b0: 1d65 523d 824b 5a3d d6fc 8b3d abf0 743d
000001c0: 626f 7b3d 017f 1e3d 81d1 77bc a73c 933d
000001d0: 1299 933d fb86 913c e14e 803d a736 ee3c
000001e0: 1c11 57bc 5d9d 243d cf31 313d 7d0c 993c
000001f0: 1e07 213d 3bc8 883d b944 473d 7b84 b3bc
0.031353462 0.015012635 0.058234982 0.087805465 -0.0019902657 -0.026697593 0.039480124 0.0011031793
0.08672154 -0.00025756969 -0.0320731 0.089889735 -0.004916535 0.06858568 0.04548366 -0.026785174
0.05880216 0.044060934 0.07960359 0.050519153 0.022340007 0.08089309 0.032643255 0.08597419
0.07720992 0.0075464915 0.0076216594 0.0070661013 0.08171758 0.014105454 0.035953373 0.08118565
0.040495027 0.028443346 0.032931782 -0.0046890937 0.06754742 0.038781878 0.009185703 0.065596454
-0.0347991 0.017635638 0.082084656 -0.010047217 0.048640974 0.06330352 0.010031894 0.045219835
0.04649496 0.07735103 0.03729362 0.010660698 0.049374707 0.041517824 0.019007955 -0.016757933
0.047664545 -0.008229967 0.026996056 0.0393958 -0.020905763 -0.04926388 0.03069131 -0.050133027
0.035267215 -0.011004633 0.013558253 0.05648584 0.051492352 0.069410965 0.02928862 -0.0018758017
0.03992571 0.04308513 0.06445268 0.06220926 -0.05660287 0.045392536 0.049540192 0.021446295
0.06348841 -0.009186556 0.06217846 0.059843883 0.037084587 0.063552454 0.057965383 -0.02163874
0.015213097 0.03540436 0.06040953 0.06035771 0.068398856 -0.026485708 -0.035491634 0.052939042
0.05022562 0.05688232 0.06844695 0.023798091 0.038524855 0.027749345 0.064317465 0.05079344
-0.013020931 -0.012985233 0.017282043 0.069638975 0.05136596 0.053294666 0.06835334 0.05979983
0.06138552 0.03869534 -0.015125633 0.07189303 0.0720693 0.017764559 0.06265045 0.029078795
-0.013126638 0.040189136 0.04326039 0.018682713 0.039313428 0.06678816 0.048649523 -0.021913758

arith.constant3 f4 [352]
00000000: 2df7 593b a74d 923d cd19 d33c ccae e6bd
00000010: eb58 7b3c b9be 57bd 470c febb 685a 243c
00000020: 8923 593d 03d5 653c af3e 1abd d60b b73c
00000030: c956 5ebd c0eb d6bc aab3 1d3d 57bb c5bc
00000040: 6900 3d3d 0098 693d b480 24bc 534a 053b
00000050: b53c 953c 3d41 c5bd 3516 39bd f2b8 0abc
00000060: a91f 85bb ce59 e53c 92cf 2a3d 7a8b d63a
00000070: 728a 983a 3d81 f1bc f617 99bc b18f 533d
00000080: 716a 783d 34a8 88bc dd28 923d 27cc c23c
00000090: 362f d23d d3c7 2f3c 3995 abbd c2f8 49bd
000000a0: c38b c6bb 14e1 953d a841 adbb 7ef2 c5bc
000000b0: 93be b63c db08 a8bc 3b22 1dba 55b8 cabc
000000c0: 42ef 283e 4c3a 7c3d 713f cdbb 1d93 a33c
000000d0: 4973 9a3d eba6 08bc 6099 da3c 8e60 263c
000000e0: cb40 7b3d ecfb 183c fffa 30bd f685 713d
000000f0: d148 b43c b8b1 2a3d 58a7 1c3c afad e7bc
00000100: e04e 133d b7af f5bc 3227 143d 8b35 bbbc
00000110: 8779 b73b f235 273c dd61 03bd b0a9 9dbb
00000120: 6c7d e63c 932c 56bc 15e5 373c 7456 9d38
00000130: 19f4 863d e4a6 c93c ff38 88bd d976 9b3d
00000140: 43b4 56bc 5982 e9b9 6a70 613d b00f db3b
00000150: 65ca afbc 6938 973d 47b2 ffbc 086a e1bc
00000160: 2525 ccbc 9434 253c eabb 2bbd d15c febc
00000170: 28cc e53a 3b31 9abc 42b8 693c c8fc 033d
00000180: 4800 643d 2dfc 883d 8110 bb3b cb81 583c
00000190: 2ccb a6bc 8db4 0f3d 3ae5 0dbe 0c46 10be
000001a0: 88f0 6a3c 86a6 48bd 5c3d ea3b 2ab4 753c
000001b0: d78e 21bd 3fac d83c 523b db3c 3ece 103d
000001c0: 78f0 393c 4433 193d ba83 26bd 9e79 2c3c
000001d0: 5036 263c 9ee9 293d fbdd a53d 4056 a3bd
000001e0: b546 bf3d b0ce 0dbb 13af 943a 68ad 0c3d
000001f0: 6238 9e3d 7e66 99bc d0c6 2e3d 84fa 2dbc
00000200: 0290 5c3d d049 3bbd 294b 7f3d c493 0abd
00000210: 99df 303d 9623 b2bc 3124 983c 629e b7bc
00000220: 3160 4d3a 0424 cdbc 3469 77bd bd93 c53c
00000230: dd73 993b 5eef 073d 624f 333d 790c 7e3c
00000240: f623 2abd 164f 303d 2de5 2fbc 7aca 4a3d
00000250: 0ad8 bebb 1c45 26bd 3458 7dbb 95c0 26bc
00000260: cf5a 7ebd fcf9 803d bc5a 84bc b07e 313c
00000270: 048a 9d3c 53b6 353d f164 19bd 5ed5 ddbd
00000280: d556 bc3b 8cf6 393b c098 313d 68ea fa3c
00000290: ac52 e13c 0eaf 153d f780 e13c 15cc 7abc
000002a0: 78a2 1d3c 37f9 51bc 7462 07bd a835 6ebd
000002b0: 5179 f23c b1a4 0a3d 2449 35bd b837 aebd
000002c0: 7742 153c 077f 05bd 8ca5 703d 006e 25bc
000002d0: bfbc 03bd bfb2 b23d 7d80 cabc f332 47bc
000002e0: 9fdd 823c 0470 0d3d 1e0c 773d d11f 8bba
000002f0: 7564 17bd 5388 373d 2275 05bd 70bf 703b
00000300: c077 d3bc 944b c73c 6c06 ad3c f1b7 07bc
00000310: d4b7 d63d c874 e0bb df98 f8bb f254 a03c
00000320: 5158 a1bb b6fa e73c 4579 2d3e 63e6 7e3d
00000330: 0e2b 983d 34ba 763d ff91 3c3d b3fe 69bd
00000340: acdc b13c 8955 313d 6f33 b2bd 0600 f03c
00000350: cfaa 3e3d 2f4f 903c 15d7 863d 06da e8bc
00000360: 8541 ce3c da6d 433c 8f99 bbbd 6bae cb3d
00000370: 998d a13c 0c20 3a3d e4d5 823d f440 bebb
00000380: 1e66 913d 0505 043d 2b25 d5bb a917 733b
00000390: 8850 793d 3ab5 a33b 9116 27bc 8b75 06be
000003a0: 7207 613c 13a7 c23a 5cc7 923b 3c9b 52bb
000003b0: c53e dd3d 69af 673b 777d 923c e96d 24bd
000003c0: fa59 80bb 2bd9 4bbc f02c c33c 26d3 0d3d
000003d0: b3c8 c53c 4121 7e3c f493 38bb 61cc 363d
000003e0: 1e46 cebc 08d5 1a38 6059 2fbd da09 58bc
000003f0: 1ba7 303d 9376 8ebd df1a 55bb 2319 023e
0.00332589 0.07143717 0.025769139 -0.112638086 0.015341024 -0.05267212 -0.0077529284 0.01003132
0.053012405 0.014027837 -0.037657436 0.022344511 -0.054281984 -0.026235461 0.03850142 -0.024137182
0.04614297 0.057029724 -0.010040451 0.002033849 0.018217424 -0.09631584 -0.045187194 -0.008466946
-0.004062612 0.027996924 0.04170186 0.0016368472 0.001163794 -0.02948057 -0.018688183 0.051650707
0.060648385 -0.016681768 0.071367 0.023778988 0.10262911 0.010728794 -0.08378071 -0.0493095
-0.0060591414 0.07318321 -0.005287368 -0.02416348 0.02230767 -0.020512035 -0.00059941754 -0.0247461
0.1649752 0.061579034 -0.0062636663 0.01996761 0.0754152 -0.008340578 0.026684463 0.010154856
0.06134109 0.009337407 -0.04320812 0.058965646 0.022007378 0.041673392 0.009561382 -0.028281061
0.035963893 -0.029991014 0.036170192 -0.02285268 0.005599204 0.010205733 -0.03207575 -0.004811488
0.028135978 -0.013072151 0.011224051 7.5024465e-05 0.06589527 0.024615712 -0.06651496 0.07591028
-0.013104501 -0.0004453834 0.055038847 0.0066852197 -0.021458814 0.07383806 -0.031212939 -0.02751638
-0.024920056 0.010083336 -0.041927256 -0.031050118 0.0017532157 -0.018822303 0.014265122 0.032223493
0.05566433 0.06688724 0.0057087545 0.013214539 -0.020360552 0.035084296 -0.13856974 -0.14089221
0.014339574 -0.048986934 0.007148428 0.014996568 -0.039442863 0.02644932 0.026761685 0.035352938
0.011348836 0.037402406 -0.040652968 0.010527043 0.010144785 0.04148256 0.0809898 -0.07975435
0.09339658 -0.0021638088 0.001134368 0.03434506 0.07725598 -0.01872563 0.04267007 -0.01061881
0.053848274 -0.04572469 0.062327538 -0.033832327 0.04318199 -0.021745484 0.018571945 -0.02241439
0.0007834463 -0.025041588 -0.060403064 0.024118299 0.0046830014 0.033187263 0.043776877 0.015505903
-0.0415382 0.043044172 -0.010735792 0.049509503 -0.0058240937 -0.04059325 -0.003865731 -0.010177751
-0.06209832 0.06297681 -0.016156547 0.010833427 0.01923085 0.04436333 -0.03744978 -0.10831712
0.005747656 0.0028375713 0.043358564 0.030629352 0.027505241 0.0365439 0.027527316 -0.015307446
0.009621255 -0.012815765 -0.033052877 -0.05815664 0.029598864 0.03384847 -0.044259205 -0.08506721
0.009110085 -0.032591846 0.058751628 -0.010097027 -0.032162424 0.08725499 -0.024719471 -0.012158143
0.015974818 0.034530655 0.06031429 -0.001061434 -0.036961038 0.044807743 -0.03258241 0.00367352
-0.025813937 0.02432803 0.021121226 -0.008283601 0.10484281 -0.006849859 -0.007586583 0.019571755
-0.004923858 0.02831779 0.16940792 0.062231433 0.07430087 0.06023617 0.04603767 -0.057127666
0.02171167 0.043294463 -0.087012164 0.029296886 0.046549615 0.017615883 0.065839924 -0.028424274
0.025177727 0.011928046 -0.09160148 0.09945377 0.01972084 0.04544072 0.06388453 -0.005806083
0.070995554 0.03223135 -0.006504675 0.003709296 0.060867816 0.004995969 -0.010198251 -0.13130777
0.013734685 0.0014850817 0.004479332 -0.0032135984 0.10802988 0.0035352355 0.017882092 -0.04014388
-0.003916976 -0.012441914 0.023825139 0.034625195 0.024143552 0.015510858 -0.0028164359 0.044628505
-0.025179919 3.6914862e-05 -0.042809844 -0.013185943 0.043128114 -0.0695621 -0.0032517237 0.12704901

arith.constant4 f4 [1, 24]
00000000: 4508 b240 31a6 4e41 cd49 5340 43af 1546
00000010: 0e8c 6f47 f886 1846 ff12 4342 a7b4 b441
00000020: 1abd 9e41 bdaa 1041 07ec 1d41 e44a 9240
00000030: 2fcd 7e45 1a9c 8b44 b09b 0544 d35f 1545
00000040: 5c9e 793f 5c83 ab3e 2d4f 1b3c 498c 8b3f
00000050: fe49 283b 92de 2b38 757c c43b ae9b f83e
5.5635095 12.915574 3.3013794 9579.815 61324.055 9761.742 48.76855 22.58821
19.842335 9.041684 9.870124 4.571642 4076.824 1116.8782 534.4326 2389.989
0.9750726 0.33498657 0.009479326 1.0902187 0.0025678868 4.097686e-05 0.0059962817 0.48556274

arith.constant5 f4 [1, 24]
00000000: 9a77 153e c568 063d e982 e33d e3ad f437
00000010: 484a 8733 b15f 9d38 a547 893c 6929 033d
00000020: 7354 e83c 9ee5 673d 9bd2 1b3d b675 a33d
00000030: 1f30 0639 4dd9 de39 0097 5a3a 6e94 cd39
00000040: bccd 073e d42c 0f3e 551e 5040 7840 2240
00000050: 4b05 9a41 e238 1c43 6475 9a40 edc3 e13f
0.14596406 0.03281476 0.111089535 2.9168039e-05 6.299939e-08 7.504167e-05 0.016757796 0.032021914
0.028360581 0.056615464 0.038042646 0.07981436 0.00012797162 0.0004250504 0.0008338541 0.00039211236
0.13262075 0.13981944 3.2518513 2.5351849 19.252584 156.2222 4.82683 1.7637917

arith.constant6 f4 [1, 128]
00000000: 9a57 933e 7ba9 b03e f600 e8be 926a 0dbf
00000010: 4959 fb3d 8d8c 44bb 8a0c b7be 144e bd3e
00000020: 992f f6be d6b0 f23e c1e1 d0be 247b c0be
00000030: c0ef 9d3e 17de 85be 4930 29bf b54f 343e
00000040: 364c a2be dcab 7f3e 15d4 103f df03 d8be
00000050: feae 1b3f 376d cabe 4a98 8dbe 19b9 d6be
00000060: 03c7 febe bdc0 123e f0e9 ec3e 7070 e43e
00000070: bdab d1be 64ca a43e 5e44 193f 99df 263f
00000080: 8cd4 eb3e 7475 ac3e f9fc 163f f28b 673e
00000090: 16e6 8abe 430c 4fbf 8996 443e 0c3e b7be
000000a0: c922 a23e 8e5c 053e c8a1 0abf 88af 823e
000000b0: 2775 29bf 3b51 2b3f e90e b83e 7ddd 03bf
000000c0: 9949 febe 4288 2a3f 6eef eabe 12f0 993e
000000d0: ae87 383f 1a24 42bf 7dfa 113f 39c4 133e
000000e0: 7f6f 82be 57e1 4b3e 7b8f 293f 75e7 fbbe
000000f0: c14c 8c3d 8123 413d 5812 dbbe 00ac 383e
00000100: dd36 b53e b2f6 5e3e b5c3 593e 8a06 cfbe
00000110: 459e c1be 7593 39be 2b9f 66bf 4abf df3e
00000120: 06d2 163f e1c8 c5be 58e2 4bbf a9f1 eabe
00000130: 69ff 27be 2a10 fcbe 0500 e9be 464a 893e
00000140: f7ab 09bf 1c58 5b3e 63e8 22bf d609 fc3e
00000150: 15b6 9bbe 996c d8be 0550 14bf 80a2 213f
00000160: 5bf8 a53e 3a6b 1fbf 8399 f63e 4400 05bf
00000170: 6446 2a3f b41b 883b 1e9d a23e 8ba0 8bbe
00000180: 0d1e 0e3f e2ef 08bf d265 a1be d7e8 07bf
00000190: 2ddd 99be 4b8a e2be 07c8 9abe fd0e f4be
000001a0: f71c b33d a883 663e 595d 463f 1f75 d5be
000001b0: 507d 713e 1b0b f1be e7af d8be 8e0e 85be
000001c0: eb5a 14bf 6518 ad3e 8a63 6f3e 2dd5 0cbf
000001d0: a23d 353f f56e 183f 4578 cfbe 936f 073f
000001e0: a055 713e 0b8a bd3e e3aa cabe 9998 833e
000001f0: dbf0 a0be d3dd cebe 5666 c8be 2b64 693e
0.28777772 0.34504303 -0.45313233 -0.5524074 0.12272889 -0.0029991001 -0.35751754 0.3697363
-0.4808319 0.4740054 -0.40797237 -0.3759395 0.30846977 -0.26146004 -0.660893 0.17608531
-0.3169877 0.24967903 0.5657361 -0.42190453 0.6081389 -0.3953645 -0.2765525 -0.41938093
-0.4976121 0.14331336 0.4627223 0.44617033 -0.40951338 0.32185662 0.59869945 0.6518493
0.46060598 0.3368336 0.58979756 0.22611979 -0.27128667 -0.80878085 0.1919805 -0.35789526
0.31667164 0.13023588 -0.5415311 0.25524545 -0.66194385 0.6692082 0.35948876 -0.5150984
-0.49665526 0.6661416 -0.45885795 0.30065972 0.7208203 -0.75836337 0.5702284 0.14430322
-0.2547569 0.19910179 0.6623456 -0.49200025 0.06850577 0.047153 -0.42787433 0.18034363
0.3539342 0.21773794 0.21266063 -0.40434676 -0.37816063 -0.18122657 -0.9008662 0.4370063
0.5891422 -0.3862982 -0.7964225 -0.45887497 -0.16406025 -0.49231082 -0.45507827 0.2681448
-0.5377802 0.2142033 -0.63635844 0.49226254 -0.30412355 -0.42270353 -0.579346 0.6313858
0.32416043 -0.6227299 0.48163995 -0.5195353 0.6651366 0.004153693 0.31760496 -0.27270922
0.55514604 -0.5349103 -0.31522995 -0.5308966 -0.30051556 -0.44246134 -0.30230734 -0.47667685
0.08745759 0.2251116 0.7748619 -0.4169092 0.23582959 -0.47078785 -0.42321703 -0.25987667
-0.5795123 0.33807674 0.23377815 -0.5501278 0.7079717 0.59544307 -0.40521446 0.52904624
0.2356782 0.3701938 -0.395835 0.2570236 -0.31433758 -0.40403613 -0.39140576 0.22792117

tfl.pseudo_qconst i1 [128, 352]
00000000: 11ec 0d09 2014 131a ea2c db1a 00da 23fb
00000010: f2ef ecd8 02f2 faf1 f7d5 0838 04f1 c318
00000020: 0ff2 ffe0 0ff1 f9d4 1548 fce0 df17 1210
00000030: 230b ff20 f922 04f2 f121 0507 e87f ddf6
00000040: efd6 0719 f31b f8d8 231c 1b13 f226 0ef6
00000050: ec07 fd0e e80c 1df5 d8f2 f6e9 0cf6 0e1a
00000060: cf11 ec5a f103 fcf1 e402 1d0e 1140 0927
00000070: 1744 fc04 1ccc 3106 cbfb 0b06 02e5 fe03
00000080: 0fee ffe6 0903 e5fd e4f2 f102 ff0f eb06
00000090: e5e6 0a17 0aec e1e8 eef1 042a ed13 dbf4
000000a0: f618 18f2 1cf5 fecd fa15 0902 f0f5 0fea
000000b0: 1312 20f0 0f0c 0a07 eaef 1b05 ff01 f513
000000c0: 0300 bc00 0dfa 061e 15e9 fff4 12fc 3df9
000000d0: 4807 e7ef fe00 ee03 37fa ea3f bc04 fbf8
000000e0: 2a09 1adf 140e 1215 4621 f1f7 24f9 5a14
000000f0: f8d6 f8f1 08ea 0c02 0d15 4cef f701 0621
17 -20 13 9 32 20 19 26
-22 44 -37 26 0 -38 35 -5
-14 -17 -20 -40 2 -14 -6 -15
-9 -43 8 56 4 -15 -61 24
15 -14 -1 -32 15 -15 -7 -44
21 72 -4 -32 -33 23 18 16
35 11 -1 32 -7 34 4 -14
-15 33 5 7 -24 127 -35 -10
-17 -42 7 25 -13 27 -8 -40
35 28 27 19 -14 38 14 -10
-20 7 -3 14 -24 12 29 -11
-40 -14 -10 -23 12 -10 14 26
-49 17 -20 90 -15 3 -4 -15
-28 2 29 14 17 64 9 39
23 68 -4 4 28 -52 49 6
-53 -5 11 6 2 -27 -2 3
15 -18 -1 -26 9 3 -27 -3
-28 -14 -15 2 -1 15 -21 6
-27 -26 10 23 10 -20 -31 -24
-18 -15 4 42 -19 19 -37 -12
-10 24 24 -14 28 -11 -2 -51
-6 21 9 2 -16 -11 15 -22
19 18 32 -16 15 12 10 7
-22 -17 27 5 -1 1 -11 19
3 0 -68 0 13 -6 6 30
21 -23 -1 -12 18 -4 61 -7
72 7 -25 -17 -2 0 -18 3
55 -6 -22 63 -68 4 -5 -8
42 9 26 -33 20 14 18 21
70 33 -15 -9 36 -7 90 20
-8 -42 -8 -15 8 -22 12 2
13 21 76 -17 -9 1 6 33

tfl.pseudo_qconst1 i1 [352, 192]
00000000: f6e2 081d c82d 0c2f f4e4 0839 20ea da13
00000010: 2d21 03cb 1b14 291f d015 d70c 08da 18e1
00000020: 088d 0713 d223 1632 0214 8114 f9f8 ddfa
00000030: ee1d f82c 34d8 f22e c4e3 e5cb cce2 2cd0
00000040: 030b e31f 37cc e931 17d3 a9d6 d1e0 26ef
00000050: ef12 131e c223 f4ee 32d8 f8ce d1ae e62b
00000060: efd0 4031 020a 0e36 e9ea e606 e6fc 2ad1
00000070: 0cf6 e3fc f91e e109 2fda 21f3 3049 f8ee
00000080: eede 11e7 06f3 1eee 0006 e8e2 2705 123a
00000090: e125 c828 302c dffa c7d2 d90d 04c8 2c18
000000a0: d52b fe2e 25fa 030c 3531 3228 04f0 172d
000000b0: 13e6 0425 bf07 13bf f1de e3e0 a7c2 1901
000000c0: d7d5 d9de e6e3 0cd3 6cf1 00e7 f1c7 f003
000000d0: e8d5 31c8 090d cce6 f72f 07d1 e412 023b
000000e0: 073f 4541 292e 385c 3536 c5d3 b8e8 90f0
000000f0: 2344 01f7 c20d d6fe 060f d2dc 25e4 191c
-10 -30 8 29 -56 45 12 47
-12 -28 8 57 32 -22 -38 19
45 33 3 -53 27 20 41 31
-48 21 -41 12 8 -38 24 -31
8 -115 7 19 -46 35 22 50
2 20 -127 20 -7 -8 -35 -6
-18 29 -8 44 52 -40 -14 46
-60 -29 -27 -53 -52 -30 44 -48
3 11 -29 31 55 -52 -23 49
23 -45 -87 -42 -47 -32 38 -17
-17 18 19 30 -62 35 -12 -18
50 -40 -8 -50 -47 -82 -26 43
-17 -48 64 49 2 10 14 54
-23 -22 -26 6 -26 -4 42 -47
12 -10 -29 -4 -7 30 -31 9
47 -38 33 -13 48 73 -8 -18
-18 -34 17 -25 6 -13 30 -18
0 6 -24 -30 39 5 18 58
-31 37 -56 40 48 44 -33 -6
-57 -46 -39 13 4 -56 44 24
-43 43 -2 46 37 -6 3 12
53 49 50 40 4 -16 23 45
19 -26 4 37 -65 7 19 -65
-15 -34 -29 -32 -89 -62 25 1
-41 -43 -39 -34 -26 -29 12 -45
108 -15 0 -25 -15 -57 -16 3
-24 -43 49 -56 9 13 -52 -26
-9 47 7 -47 -28 18 2 59
7 63 69 65 41 46 56 92
53 54 -59 -45 -72 -24 -112 -16
35 68 1 -9 -62 13 -42 -2
6 15 -46 -36 37 -28 25 28

tfl.pseudo_qconst2 i1 [192, 24]
00000000: c23a 0fe9 46c8 e747 21eb afbc 1a7f b2e5
00000010: 1fe9 2b13 e01d 23a3 6f49 e553 4443 bc11
00000020: 3e4a 99a6 204c df0d 161c 7f16 fb2d fe0c
00000030: ea21 2c89 fd81 aaaf 3917 fe08 afbd 202d
00000040: 3e5e ed9a b335 04e1 ceeb f81f e5ca dce5
00000050: 2b2e 08c0 4408 09c3 819d f820 e702 cc3b
00000060: eae2 cdf4 3ffb 0739 29f9 ce0c 2701 1400
00000070: bf81 0c2b 032a e1ed d7e4 da2b 31df 1f20
00000080: 2627 0d28 1db5 b91c 1d81 3815 1cfa 3030
00000090: e4dd 3400 0c57 fd26 a4af f34c 26f9 fd1e
000000a0: 217f ea1f fa37 2b1b f855 180f d5fc 0729
000000b0: e19c 35e7 416a db0f 81dd ec07 2cf6 f143
000000c0: ffc3 c818 de1a 38d8 1417 c4ae 4400 1fff
000000d0: 81a3 f828 1dc4 c8cb 20d0 e1c0 53ab cd61
000000e0: c0bf 543e 85c7 be33 657f d84c cd7e 54f0
000000f0: defc 1816 cf44 1be9 d5d7 dfd4 f2f4 3ad8
-62 58 15 -23 70 -56 -25 71
33 -21 -81 -68 26 127 -78 -27
31 -23 43 19 -32 29 35 -93
111 73 -27 83 68 67 -68 17
62 74 -103 -90 32 76 -33 13
22 28 127 22 -5 45 -2 12
-22 33 44 -119 -3 -127 -86 -81
57 23 -2 8 -81 -67 32 45
62 94 -19 -102 -77 53 4 -31
-50 -21 -8 31 -27 -54 -36 -27
43 46 8 -64 68 8 9 -61
-127 -99 -8 32 -25 2 -52 59
-22 -30 -51 -12 63 -5 7 57
41 -7 -50 12 39 1 20 0
-65 -127 12 43 3 42 -31 -19
-41 -28 -38 43 49 -33 31 32
38 39 13 40 29 -75 -71 28
29 -127 56 21 28 -6 48 48
-28 -35 52 0 12 87 -3 38
-92 -81 -13 76 38 -7 -3 30
33 127 -22 31 -6 55 43 27
-8 85 24 15 -43 -4 7 41
-31 -100 53 -25 65 106 -37 15
-127 -35 -20 7 44 -10 -15 67
-1 -61 -56 24 -34 26 56 -40
20 23 -60 -82 68 0 31 -1
-127 -93 -8 40 29 -60 -56 -53
32 -48 -31 -64 83 -85 -51 97
-64 -65 84 62 -123 -57 -66 51
101 127 -40 76 -51 126 84 -16
-34 -4 24 22 -49 68 27 -23
-43 -41 -33 -44 -14 -12 58 -40
