temp/chrome/optimization_guide_model_store/2/E6DC4029A1E4B4C1/92DC6E057F2EBE93/model.tflite (tflite, 392048 bytes, 10 tensors)

pod/fully_connected/MatMul_bias f4 [250]
000000 94 50 9a bf 14 71 93 be 32 85 de bd e5 0b a2 bf
       -1.205584 -0.2879721 -0.10865249 -1.265988
000010 06 3a ab 3e 4b fe a6 be 26 87 ba bf 34 6f 51 be
       0.33442706 -0.32615885 -1.4572494 -0.20452577
000020 3f f6 ac be e9 52 09 bf 10 4c fa 3e e0 c2 5c bd
       -0.3378162 -0.53642136 0.48886156 -0.053896785
000030 b9 15 80 3e a4 4e ab bf 82 41 f0 3e ce 25 8d bf
       0.25016573 -1.3383374 0.46924978 -1.1027162
000040 48 b9 45 bf b2 29 af 3e 1e a8 3a 3e d9 e1 65 bf
       -0.7723584 0.34211498 0.18228194 -0.8979774
000050 d1 77 d6 3d b8 71 6b be 00 07 a1 3e 22 8a 3c 3f
       0.10472072 -0.22992599 0.31450653 0.73648274
000060 0a ed 91 be bc 4c bd 3c f1 bc 3e be 46 c1 f5 3e
       -0.2850116 0.023107879 -0.18626763 0.47999018
000070 56 8f 5a be 70 3d e1 bc d3 e1 19 bf 3d be cd bf
       -0.21343741 -0.027495116 -0.60110205 -1.6073681
000080 a5 6b 65 be 6c 76 81 be 2a a4 30 bf 72 b6 24 3f
       -0.22404344 -0.2528566 -0.69000494 0.6434089
000090 e3 14 d5 3d ae 88 c0 3f 75 e0 53 bf 8c 2b 13 bf
       0.104043745 1.5041711 -0.8276437 -0.5748832
0000a0 08 55 8e be b9 cc 89 be 0f 98 3d 3f e2 47 15 40
       -0.2779925 -0.26914003 0.7406015 2.3325124
0000b0 34 08 1f 3e 1d e4 f0 bd e8 16 b9 3e ce e5 39 3f
       0.15530473 -0.11762259 0.3615029 0.7261628
0000c0 8b e3 21 bf dc eb 34 bf a0 90 e5 3e 03 75 86 be
       -0.6323783 -0.7067239 0.44836903 -0.26261148
0000d0 f6 3f c7 bf 82 bf 8b 3e 97 08 9a be 65 a2 09 bf
       -1.5566394 0.27294546 -0.3008468 -0.5376342
0000e0 08 e1 18 bc cd e8 3f bf 50 82 8f 3c 7f 38 6a 3e
       -0.009330995 -0.749646 0.017518193 0.22873114
0000f0 e4 95 ac 3f 3c 4d 8a bd 94 23 91 be 6b 7e 50 bf
       1.3483243 -0.067530125 -0.28347456 -0.814429
000100 7d b1 2a 3e d2 5e 30 3e a2 94 68 be a2 fe c9 3d
       0.16669269 0.17223671 -0.22712949 0.098630205
000110 57 54 15 3f 65 ae a8 3e 46 f3 cf bf 7c c5 07 3e
       0.5833182 0.32945552 -1.6246116 0.13258928
000120 c4 7f 55 be b4 cf 08 3e 31 c4 d7 3d d9 a5 98 bf
       -0.2084952 0.13360482 0.105354674 -1.1925613
000130 3e 29 85 bf 46 14 76 3f 80 3b 5c bd 48 e9 0c bf
       -1.0403211 0.96124685 -0.05376768 -0.5504346
000140 70 9c 73 3d 5a de 2e be aa 10 ea 3d a0 b9 28 bf
       0.059475362 -0.17077008 0.1142896 -0.6590824
000150 b0 87 27 be 80 13 de 3e f4 96 1a bf 52 98 21 bf
       -0.16360354 0.43374252 -0.60386586 -0.6312305
000160 94 6f 79 3e cc bb c3 be 43 14 25 3e 28 a9 53 bf
       0.2435897 -0.38229215 0.1612101 -0.82679987
000170 48 d3 cd bf d0 56 e4 bb c4 9a 3e 3f 85 70 10 bf
       -1.6080103 -0.0069683567 0.74454904 -0.5642169
000180 d5 05 fd be 28 56 d6 3c 58 bc 16 bf 57 06 0c be
       -0.49418512 0.02616413 -0.5888114 -0.13674293
000190 82 60 a6 3e e0 3f b8 3d f1 15 e6 3c 00 84 d3 3f
       0.32495505 0.08996558 0.028086634 1.6524658
0001a0 78 bd 6e bf 71 b4 be bf 1e 4a 29 bf 05 bd 36 bf
       -0.93257856 -1.4898816 -0.6612872 -0.7138217
0001b0 17 d8 fc bd 96 61 6c be 4c 6f b8 3d 32 22 ec 3d
       -0.12345903 -0.23084101 0.09005603 0.1152996
0001c0 56 fa 21 bf 75 cb 90 bf 61 8e c2 3e 50 0c 99 3f
       -0.6327261 -1.131209 0.3799925 1.1956882
0001d0 84 19 ac be e0 d6 c9 39 a8 19 38 c0 a1 16 ca bf
       -0.33613217 0.00038497802 -2.876566 -1.5788156
0001e0 79 71 f8 bf 4b 95 55 3f 89 d8 93 bf 6c 7a 55 bf
       -1.9409629 0.8343093 -1.1550456 -0.83389926
0001f0 f5 9d 00 c0 bd c4 08 3f 80 63 2b be b4 7c e7 3c
       -2.009641 0.534252 -0.16737175 0.028257705
000200 fc d9 d9 bf 21 7d 71 bf a9 3f 39 3f 9e 4b d3 bd
       -1.7019649 -0.94331557 0.7236276 -0.10317157
000210 52 94 4d 3d bc 15 36 bf 0f b4 90 3e be 0f c0 be
       0.050190277 -0.71126914 0.28262374 -0.3751201
000220 45 ed 7c bf ee ed 88 bf 8c 0b 88 bd 36 b0 f6 be
       -0.98799545 -1.069761 -0.066428274 -0.48181313
000230 32 ac 17 3f 68 c4 cf be 9c e3 e5 3e d6 c8 86 3e
       0.59247124 -0.40579534 0.44900215 0.263251
000240 12 ed 02 bf 20 a8 bd 3d e4 5a ba bf e9 98 7b 3f
       -0.5114299 0.09260583 -1.4558988 0.982802
000250 b3 f0 79 3e 64 42 48 bf 06 11 30 3e fb 0a e3 bf
       0.24408226 -0.78226304 0.17193994 -1.7737726
000260 02 d4 86 3c 0f 05 89 3e 48 e2 28 3f 42 5d e6 3e
       0.016458515 0.26761672 0.6597028 0.44993025
000270 36 dd c9 bf ab 41 a2 be 6c 4f 8a bd 9a 43 08 bf
       -1.5770633 -0.31690726 -0.0675343 -0.5322815
000280 b2 e9 45 bf ff 62 1a 3f cd 3d 78 be c7 a8 72 bf
       -0.77309716 0.60307306 -0.24242325 -0.94788784
000290 22 eb 24 3e 70 b5 87 be e8 45 ce 3e 58 f0 fd 3c
       0.16105321 -0.26505613 0.4028771 0.030998394
0002a0 d2 a1 6d bf 34 7f 13 bd 54 0e da 3e 14 f7 01 bf
       -0.92825043 -0.036009982 0.42589056 -0.50767636
0002b0 90 46 e3 bc 30 2b ab 3d 8e 20 f1 bc 0c 2b b2 3c
       -0.027743608 0.08357847 -0.029434469 0.021749042
0002c0 30 1b 23 be fb 70 2a 3d 0f ce 2d 3f 59 55 58 3f
       -0.1592834 0.041611653 0.67892545 0.8450523
0002d0 40 d0 2d 3f 8f fb af 3e cd 01 1d bf 23 e0 31 bf
       0.6789589 0.3437161 -0.6133087 -0.6948263
0002e0 8d e5 25 be 56 38 2b bf ca 3b fc 3d 1d ec 02 3e
       -0.16200848 -0.66882837 0.12316091 0.12785383
0002f0 5f 33 14 bf b8 64 2d 3f 45 e7 12 be c8 bc 29 be
       -0.57890886 0.6773181 -0.14346035 -0.1657592
000300 77 f5 86 bf 47 e6 1c bf 7e b0 8b 3e 48 33 31 bf
       -1.054366 -0.61288875 0.2728309 -0.69218874
000310 14 ed bb be 24 cb 9c bd cd 43 b3 be 68 ca fb 3d
       -0.36704314 -0.076559335 -0.35012665 0.12294465
000320 59 28 0d bf ca 07 29 bf 58 e4 3a bf 91 96 92 bf
       -0.5513969 -0.6602751 -0.73004675 -1.1452199
000330 06 f4 d1 be b0 e6 d3 bf 15 be f6 3e 1c 8f 5e bf
       -0.41006488 -1.6554775 0.48191896 -0.8693712
000340 08 2c df be dd cb 49 3e cc 91 2e bf e7 f1 5f bf
       -0.4358828 0.19706674 -0.6819122 -0.8747849
000350 d8 e9 9d bc af 62 e9 be d6 a4 17 3d aa c5 c9 3d
       -0.019276544 -0.45583102 0.037022434 0.098521546
000360 7a 5d 36 bf af 54 e0 be 4f 57 de 3d b5 e6 8a bf
       -0.71236384 -0.43814608 0.108564965 -1.0851656
000370 b5 54 14 3e 0e f8 2e be f2 64 ac be ad 8e f0 bd
       0.14485438 -0.17086813 -0.33670765 -0.11745963
000380 b9 3e 30 bf 3c 4e 88 be 68 55 f6 3e 02 e4 17 40
       -0.6884571 -0.26622188 0.48112035 2.3732915
000390 22 78 d5 3d c8 cf 34 3e 22 3e 32 bf 10 47 23 bf
       0.10423304 0.17657387 -0.6962606 -0.6378031
0003a0 da 8c 57 3f da c2 b8 bf 9e 1b 81 bd fa b9 f4 bc
       0.841993 -1.4434464 -0.06304096 -0.029873837
0003b0 d1 2a 93 3f 66 4a cf 3e 41 a2 da be 70 91 6f bf
       1.1497442 0.4048645 -0.42701915 -0.93581295
0003c0 1b 69 09 3f 1f cc c6 bd 8a 3b 07 bf bd 06 f7 bf
       0.53676003 -0.09706902 -0.52825224 -1.9298931
0003d0 42 56 e4 3f 95 88 52 be 66 10 82 bf 67 ad 1d 3f
       1.7838824 -0.20559914 -1.0161254 0.61592716
0003e0 a1 e5 98 3e 7e fc 7c be
       0.29862693 -0.24705693

pod/fully_connected/weight/transpose i1 [250, 64] scale=0.03014456 zero_point=0
000000 08 03 03 0c 06 fe f5 08 0a fc ed fb 08 11 f9 05
       0.24115647 0.09043368 0.09043368 0.36173472 0.18086736 -0.06028912 -0.33159015 0.24115647 0.3014456 -0.12057824 -0.57274663 -0.1507228 0.24115647 0.5124575 -0.21101192 0.1507228
000010 23 04 ef ff f2 05 05 02 fa f4 f7 f0 2a 08 0b f8
       1.0550596 0.12057824 -0.5124575 -0.03014456 -0.42202383 0.1507228 0.1507228 0.06028912 -0.18086736 -0.36173472 -0.27130103 -0.48231295 1.2660714 0.24115647 0.33159015 -0.24115647
000020 f6 ef 00 03 05 f9 fb 0f fb 02 05 f5 03 0f 0b 09
       -0.3014456 -0.5124575 0.0 0.09043368 0.1507228 -0.21101192 -0.1507228 0.45216838 -0.1507228 0.06028912 0.1507228 -0.33159015 0.09043368 0.45216838 0.33159015 0.27130103
000030 ff f7 0e 03 f4 ff 08 fd 06 04 02 f6 ff ff ff fd
       -0.03014456 -0.27130103 0.42202383 0.09043368 -0.36173472 -0.03014456 0.24115647 -0.09043368 0.18086736 0.12057824 0.06028912 -0.3014456 -0.03014456 -0.03014456 -0.03014456 -0.09043368
000040 0c f4 05 fe 0d fb fc f4 03 ff f5 fd 09 07 04 05
       0.36173472 -0.36173472 0.1507228 -0.06028912 0.39187926 -0.1507228 -0.12057824 -0.36173472 0.09043368 -0.03014456 -0.33159015 -0.09043368 0.27130103 0.21101192 0.12057824 0.1507228
000050 f0 1b 1a 19 ee 09 dd ee 08 06 f9 ef 09 fd 03 f8
       -0.48231295 0.8139031 0.7837585 0.753614 -0.54260206 0.27130103 -1.0550596 -0.54260206 0.24115647 0.18086736 -0.21101192 -0.5124575 0.27130103 -0.09043368 0.09043368 -0.24115647
000060 11 f4 2a f5 e9 12 f0 f8 09 0f f6 00 0d 00 f8 17
       0.5124575 -0.36173472 1.2660714 -0.33159015 -0.69332486 0.54260206 -0.48231295 -0.24115647 0.27130103 0.45216838 -0.3014456 0.0 0.39187926 0.0 -0.24115647 0.69332486
000070 f6 fb 07 fe f1 00 fb f8 03 fa f7 07 fe f4 f8 01
       -0.3014456 -0.1507228 0.21101192 -0.06028912 -0.45216838 0.0 -0.1507228 -0.24115647 0.09043368 -0.18086736 -0.27130103 0.21101192 -0.06028912 -0.36173472 -0.24115647 0.03014456
000080 07 0b f5 0a 08 f0 10 13 03 ea f2 ea 0c fa 02 fc
       0.21101192 0.33159015 -0.33159015 0.3014456 0.24115647 -0.48231295 0.48231295 0.57274663 0.09043368 -0.6631803 -0.42202383 -0.6631803 0.36173472 -0.18086736 0.06028912 -0.12057824
000090 01 06 05 ee 19 f3 01 08 0a 00 06 1e 00 0c ee 0a
       0.03014456 0.18086736 0.1507228 -0.54260206 0.753614 -0.39187926 0.03014456 0.24115647 0.3014456 0.0 0.18086736 0.90433675 0.0 0.36173472 -0.54260206 0.3014456
0000a0 ec 13 ff f9 e6 f7 0f 24 06 0b 07 19 0b fe 08 fb
       -0.6028912 0.57274663 -0.03014456 -0.21101192 -0.7837585 -0.27130103 0.45216838 1.0852041 0.18086736 0.33159015 0.21101192 0.753614 0.33159015 -0.06028912 0.24115647 -0.1507228
0000b0 f0 e3 bd f4 06 07 f4 0d 07 ee 17 f2 15 f6 ed e1
       -0.48231295 -0.87419224 -2.0196855 -0.36173472 0.18086736 0.21101192 -0.36173472 0.39187926 0.21101192 -0.54260206 0.69332486 -0.42202383 0.6330357 -0.3014456 -0.57274663 -0.9344813
0000c0 f6 ee 09 ff ee f7 ff 06 e8 1c 12 06 0b fb f5 01
       -0.3014456 -0.54260206 0.27130103 -0.03014456 -0.54260206 -0.27130103 -0.03014456 0.18086736 -0.72346944 0.84404767 0.54260206 0.18086736 0.33159015 -0.1507228 -0.33159015 0.03014456
0000d0 11 04 fd fc 02 f7 fe ed ed 03 07 f1 fb 03 0a ef
       0.5124575 0.12057824 -0.09043368 -0.12057824 0.06028912 -0.27130103 -0.06028912 -0.57274663 -0.57274663 0.09043368 0.21101192 -0.45216838 -0.1507228 0.09043368 0.3014456 -0.5124575
0000e0 e4 fd fe 03 00 02 06 07 19 08 fb f6 fa f8 ec 08
       -0.84404767 -0.09043368 -0.06028912 0.09043368 0.0 0.06028912 0.18086736 0.21101192 0.753614 0.24115647 -0.1507228 -0.3014456 -0.18086736 -0.24115647 -0.6028912 0.24115647
0000f0 0b 18 10 f7 f7 0e fd f4 ef 1b 00 f9 08 f8 ff ee
       0.33159015 0.72346944 0.48231295 -0.27130103 -0.27130103 0.42202383 -0.09043368 -0.36173472 -0.5124575 0.8139031 0.0 -0.21101192 0.24115647 -0.24115647 -0.03014456 -0.54260206

pod/fully_connected_1/MatMul_bias f4 [200]
000000 a1 9e 3c 3f 5c 43 8e 3f 58 4f 36 3f fb 8a ad 3f
       0.7367955 1.1114306 0.7121482 1.3558038
000010 df bb 73 3f de fc f0 3f 3d 5b 8c 3f 71 d9 be 3f
       0.95208544 1.8827169 1.0965344 1.4910108
000020 eb 4e 49 3f cd 75 0b 3f ec 76 19 be a5 4d 37 3f
       0.78636044 0.54476625 -0.14986771 0.7160285
000030 f3 49 5d 3f 6f e0 bc 3f 64 e1 d7 3f 9b 52 ea 3e
       0.8644096 1.4755992 1.6865659 0.45766148
000040 40 05 21 3f 80 34 4c 3f 99 d1 83 3f bd a9 cc 3f
       0.62898636 0.7976761 1.0298339 1.59893
000050 4c b2 86 3e be 8e 41 3f ff fd 67 3f af 8c d3 3e
       0.26307905 0.7560843 0.9062194 0.4131827
000060 bd a3 48 3f b9 d4 54 3f 68 09 9f 3f d8 37 05 40
       0.78374845 0.8313709 1.2424746 2.0815334
000070 c3 98 9e 3f b2 59 31 3f 1a c3 2e 3f 48 05 24 3f
       1.2390369 0.6927749 0.6826645 0.6407056
000080 98 c1 68 3f fc d1 70 3f 4f 42 32 3f 5d a0 24 3f
       0.909204 0.9407041 0.6963243 0.64307195
000090 e9 26 23 3e ec 0d e8 3f 74 aa 4a 3f 76 e2 71 3f
       0.15932812 1.8129249 0.7916634 0.94486177
0000a0 5a 19 2e 3e d4 db 84 3f 40 32 85 3f cc b3 98 3e
       0.17001858 1.0379586 1.040596 0.29824674
0000b0 66 c8 27 bf 81 5a 85 3f c1 f7 a6 3f 64 b4 92 3d
       -0.6554016 1.0418245 1.3044358 0.07163313
0000c0 9f 5e e5 3f 6e f2 85 3f d0 66 a8 3e ce d5 a8 3f
       1.7919501 1.0464609 0.3289094 1.3190248
0000d0 22 35 f4 3f a9 65 87 3f f4 ed 98 3f 1b f0 18 3e
       1.9078715 1.0577899 1.1947618 0.14935343
0000e0 ca 6f 6f 3f 4e bc d4 3f 2f 99 d3 3f aa 3a 0d 3f
       0.9352995 1.6619966 1.6531123 0.5516764
0000f0 f3 9d 9a 3f 09 0d 0d 3f 57 17 b2 3f 4f 6b 6f 3f
       1.2079452 0.55098015 1.3913373 0.93523115
000100 c8 b8 26 3f 33 00 53 3f 74 98 6f 3f 17 02 41 3f
       0.65125704 0.8242218 0.93592 0.75393814
000110 cb 31 1d 3f 3b c1 0f 3f 2a 2a 95 3f 3b d4 a9 3f
       0.61404103 0.5615422 1.1653492 1.3267893
000120 9f 32 fa 3f 9a 5c 04 3f b0 2d 3a 3f 0f 23 70 3f
       1.9546698 0.517038 0.72725964 0.93803495
000130 4c 20 b2 3e 59 e4 89 3f 1a 79 6b bd e2 7a 75 3f
       0.34790266 1.0772811 -0.05748854 0.9589063
000140 2d dd 0d be c2 4e 69 3f 86 7f 87 3f 3b 6c cc 3e
       -0.13853903 0.911358 1.0585792 0.39926323
000150 c7 1f e5 3e 21 32 1b c0 d4 57 d0 3f 15 7f e8 3e
       0.44750807 -2.4249346 1.6276803 0.45409456
000160 f3 5e 82 3f 41 d4 7b 3f 51 75 2f 3e 18 aa ac 3f
       1.0185226 0.9837075 0.17134596 1.3489408
000170 99 77 9b 3f 23 fa 43 3f 06 31 6c 3f 61 56 f4 3f
       1.2145873 0.76553553 0.92262304 1.9088861
000180 b3 fc 50 3f 2f 5c 00 40 99 25 c1 3f bb 17 d0 3f
       0.8163559 2.0056264 1.5089599 1.6257242
000190 5b ef 73 3f ac 5e 87 3f 11 f3 81 3f 87 24 56 3f
       0.952871 1.0575767 1.0152303 0.83649486
0001a0 1c 13 de 3f 16 b4 ae 3e 7c 10 b4 3f 66 79 c2 3f
       1.7349582 0.3412177 1.4067531 1.5193298
0001b0 a7 64 ba 3f 17 b1 1b 3e f5 35 07 3e 55 a6 23 40
       1.4561967 0.15204273 0.13204177 2.557027
0001c0 c9 48 91 3f 0a 69 c8 3f ea ed 95 be 5c 4f 58 3f
       1.1350337 1.5657055 -0.29283077 0.8449609
0001d0 88 aa 3c 3f f3 10 31 3f 72 7d 70 bd 78 b9 66 be
       0.7369771 0.6916649 -0.058713384 -0.22531688
0001e0 91 32 91 3f 03 38 7c 3f b1 ba bf 3f ff 6b a4 3f
       1.1343557 0.9852297 1.4978849 1.2845458
0001f0 67 25 ec 3f 82 4e 24 be 01 0f 6f 3f 9d 0c aa bc
       1.8448914 -0.16045573 0.9338227 -0.020757968
000200 90 87 72 3f 93 9f 13 3f 1e e9 4d 3f d6 a2 29 3f
       0.947381 0.57665366 0.80433834 0.6626409
000210 18 12 81 3f ba 42 e3 3e 31 07 4e 3f d8 76 dd 3f
       1.0083647 0.44386846 0.80479723 1.7301893
000220 5d 9d 77 be f7 7a b1 3e 56 e0 dc 3f 38 56 61 3f
       -0.24181123 0.34664127 1.7255962 0.88022184
000230 ed 64 56 40 11 75 29 3c 43 d0 c1 3f 21 05 5c 3f
       3.34991 0.010342852 1.5141681 0.85945326
000240 7c b5 47 3f 61 78 a7 3f e7 78 e8 3e 93 c4 5b 3f
       0.780113 1.3083612 0.4540474 0.85846823
000250 fd 77 83 bc b8 4b 82 3f e7 5a ad 3f 42 8a f5 3f
       -0.016048426 1.0179358 1.3543366 1.9182818
000260 ad 74 84 3f 7d ce b2 3f 2d 78 e2 3e 32 0b 84 3f
       1.0348107 1.3969265 0.44232312 1.0315917
000270 0f a1 64 3f 99 7b 82 3f 6f f0 7b 3f d3 e5 56 3f
       0.89308256 1.0193969 0.9841375 0.83944434
000280 70 76 ee 3f 8b 81 60 3f 59 84 88 3f d4 d0 59 3f
       1.8629894 0.87697667 1.0665389 0.8508427
000290 1d d0 cc 3f 83 74 81 3f 73 4f f6 bd e1 d0 49 3f
       1.6001011 1.0113682 -0.120268725 0.7883435
0002a0 53 1a 33 3f b6 2d 00 3f b4 bb 99 3f 65 de 59 3f
       0.6996204 0.5006975 1.2010407 0.8510497
0002b0 46 a2 ae 3f 2f 75 10 3e 49 54 74 3e 7c 38 84 3f
       1.3643272 0.14107202 0.23860277 1.0329738
0002c0 10 f7 11 3f 09 62 14 3f 83 bc c9 3e 68 06 6a 3f
       0.5701761 0.5796209 0.39401636 0.91416025
0002d0 68 ee cf 3e 78 a9 45 3f 1c ec 5e 3f 28 8a 89 3f
       0.40611577 0.77211714 0.87079024 1.0745287
0002e0 93 02 98 3f 10 f4 a3 3d 1d 25 83 bd e6 58 42 3f
       1.1875786 0.080055356 -0.06403563 0.759169
0002f0 3b 3d d6 3e 81 4d bf 3f 36 91 ca bd 1d 84 35 3f
       0.4184359 1.4945527 -0.09890978 0.70904714
000300 67 42 29 3e 5c ce 63 3f 86 80 84 3f 9b 15 ad 3f
       0.16529237 0.88986754 1.0351722 1.3522218
000310 89 aa 99 3f 67 45 c9 3f e8 4d 56 3f eb 09 25 3d
       1.2005168 1.5724305 0.83712626 0.04029266

pod/fully_connected_1/weight/transpose i1 [200, 250] scale=0.011571239 zero_point=0
000000 fa f9 02 ec ff 05 00 f4 f6 fe f5 05 06 fa 0c 0b
       -0.06942743 -0.080998674 0.023142477 -0.23142478 -0.011571239 0.057856195 0.0 -0.13885486 -0.11571239 -0.023142477 -0.12728363 0.057856195 0.06942743 -0.06942743 0.13885486 0.12728363
000010 f9 00 0d 0a fc 07 05 00 05 06 03 fd 00 03 09 fc
       -0.080998674 0.0 0.1504261 0.11571239 -0.046284955 0.080998674 0.057856195 0.0 0.057856195 0.06942743 0.034713715 -0.034713715 0.0 0.034713715 0.104141146 -0.046284955
000020 fa f2 fc 08 0a 07 fc 06 06 fa ff 0a fd f9 0a f7
       -0.06942743 -0.16199735 -0.046284955 0.09256991 0.11571239 0.080998674 -0.046284955 0.06942743 0.06942743 -0.06942743 -0.011571239 0.11571239 -0.034713715 -0.080998674 0.11571239 -0.104141146
000030 06 ff 03 04 03 05 ff f6 00 07 f2 ff fd 0a f5 00
       0.06942743 -0.011571239 0.034713715 0.046284955 0.034713715 0.057856195 -0.011571239 -0.11571239 0.0 0.080998674 -0.16199735 -0.011571239 -0.034713715 0.11571239 -0.12728363 0.0
000040 01 01 0b fc 00 09 fb ff fd ff ff 08 01 f3 07 f0
       0.011571239 0.011571239 0.12728363 -0.046284955 0.0 0.104141146 -0.057856195 -0.011571239 -0.034713715 -0.011571239 -0.011571239 0.09256991 0.011571239 -0.1504261 0.080998674 -0.18513982
000050 05 ff fe fe 00 02 f6 09 f8 f9 fd f7 fd f7 f9 09
       0.057856195 -0.011571239 -0.023142477 -0.023142477 0.0 0.023142477 -0.11571239 0.104141146 -0.09256991 -0.080998674 -0.034713715 -0.104141146 -0.034713715 -0.104141146 -0.080998674 0.104141146
000060 05 fe 02 fd f7 07 f8 ff ff f5 04 fc ff 01 06 fc
       0.057856195 -0.023142477 0.023142477 -0.034713715 -0.104141146 0.080998674 -0.09256991 -0.011571239 -0.011571239 -0.12728363 0.046284955 -0.046284955 -0.011571239 0.011571239 0.06942743 -0.046284955
000070 f7 07 fb 03 05 ff fb fc f9 03 01 f7 f9 ff fb f5
       -0.104141146 0.080998674 -0.057856195 0.034713715 0.057856195 -0.011571239 -0.057856195 -0.046284955 -0.080998674 0.034713715 0.011571239 -0.104141146 -0.080998674 -0.011571239 -0.057856195 -0.12728363
000080 fb 08 04 f9 f7 02 07 fd 02 02 fc 02 01 ff 02 f0
       -0.057856195 0.09256991 0.046284955 -0.080998674 -0.104141146 0.023142477 0.080998674 -0.034713715 0.023142477 0.023142477 -0.046284955 0.023142477 0.011571239 -0.011571239 0.023142477 -0.18513982
000090 00 06 04 fa fc e5 01 f2 0c 08 01 fa 01 09 02 09
       0.0 0.06942743 0.046284955 -0.06942743 -0.046284955 -0.31242344 0.011571239 -0.16199735 0.13885486 0.09256991 0.011571239 -0.06942743 0.011571239 0.104141146 0.023142477 0.104141146
0000a0 fc ff 00 f4 02 f3 01 03 02 03 0a 05 03 0c fb f8
       -0.046284955 -0.011571239 0.0 -0.13885486 0.023142477 -0.1504261 0.011571239 0.034713715 0.023142477 0.034713715 0.11571239 0.057856195 0.034713715 0.13885486 -0.057856195 -0.09256991
0000b0 ff 05 fe f9 ff fe ff f9 01 fc fb 05 fc f8 f9 ff
       -0.011571239 0.057856195 -0.023142477 -0.080998674 -0.011571239 -0.023142477 -0.011571239 -0.080998674 0.011571239 -0.046284955 -0.057856195 0.057856195 -0.046284955 -0.09256991 -0.080998674 -0.011571239
0000c0 fd f5 02 fd 00 0a 02 0a ef ff 00 f8 02 f6 02 01
       -0.034713715 -0.12728363 0.023142477 -0.034713715 0.0 0.11571239 0.023142477 0.11571239 -0.19671106 -0.011571239 0.0 -0.09256991 0.023142477 -0.11571239 0.023142477 0.011571239
0000d0 07 fe 07 f7 03 f7 0c f4 fe 00 04 fd f6 00 03 ff
       0.080998674 -0.023142477 0.080998674 -0.104141146 0.034713715 -0.104141146 0.13885486 -0.13885486 -0.023142477 0.0 0.046284955 -0.034713715 -0.11571239 0.0 0.034713715 -0.011571239
0000e0 09 0d 02 ff fb fc 03 00 03 0f 05 01 05 f3 03 fd
       0.104141146 0.1504261 0.023142477 -0.011571239 -0.057856195 -0.046284955 0.034713715 0.0 0.034713715 0.17356858 0.057856195 0.011571239 0.057856195 -0.1504261 0.034713715 -0.034713715
0000f0 02 08 fd f9 08 fe 03 03 fd 07 ff 02 00 f1 05 08
       0.023142477 0.09256991 -0.034713715 -0.080998674 0.09256991 -0.023142477 0.034713715 0.034713715 -0.034713715 0.080998674 -0.011571239 0.023142477 0.0 -0.17356858 0.057856195 0.09256991

pod/fully_connected_2/MatMul_bias f4 [111]
000000 c2 65 3d bf 1e 26 e2 3f d4 3f d3 3c 61 d4 fd be
       -0.73983395 1.7667882 0.025787272 -0.49576095
000010 c0 cf c2 3f d5 b9 5a 3f bd 74 3d bf 90 06 c8 3b
       1.521965 0.8543981 -0.74006253 0.006104298
000020 f6 7f 9a 3f e4 08 f2 bf 59 8d 95 3f 96 af bf 3f
       1.20703 -1.8908963 1.1683761 1.497546
000030 d2 f9 c8 3f 1d 97 46 3f 2e 1f c9 3f de 55 63 3f
       1.5701239 0.7757433 1.571264 0.888029
000040 4e 69 d6 3f 94 a9 e1 3f 25 13 23 bf 82 ab 2f 3f
       1.6750886 1.7629876 -0.6370109 0.68621075
000050 88 70 82 40 4d 13 b0 3e db ef 09 40 9a 0e a9 3f
       4.0762367 0.34389725 2.1552646 1.3207581
000060 ac 7b d8 3f 12 bf 79 bf 90 72 85 3f 40 6e 9d 3f
       1.6912742 -0.97557175 1.0425587 1.2299271
000070 6f d2 06 40 e0 5f e9 3f 49 af 22 3f 14 5b 4e 3f
       2.1065938 1.8232384 0.63548714 0.80607724
000080 71 e0 67 3f 30 1e 18 c0 f4 97 b8 3f b1 f4 3a 3f
       0.90576845 -2.3768425 1.4421372 0.7302962
000090 ff 11 b1 3e 6f e6 ef 3f 12 c9 44 3f fe 97 c0 3f
       0.34584042 1.8742198 0.7686931 1.5046384
0000a0 c3 e1 bb 3f 55 64 e5 3f 9c de 62 c0 04 ab 9b 3f
       1.4678272 1.7921244 -3.544837 1.2161565
0000b0 96 ec 30 40 04 74 de 3f d7 7e de 3f 6b 5b 82 bf
       2.76444 1.7379155 1.7382458 -1.0184149
0000c0 97 67 9d 3f 5d 54 37 3f 83 72 95 3f a0 72 92 c0
       1.2297238 0.71613103 1.1675571 -4.5764923
0000d0 13 6e 66 3f 39 29 3f c0 80 4c 2a c0 6b 62 a1 bf
       0.9001171 -2.986891 -2.6609192 -1.260816
0000e0 8f ff c6 3f 94 42 9f 3f 90 9a af 3f 29 5e 91 3f
       1.554674 1.2442193 1.3719044 1.135686
0000f0 7e 70 68 c0 d5 b0 65 3f e9 40 2b 3f 60 00 16 3f
       -3.631866 0.8972295 0.6689592 0.5859432
000100 5c 98 cf 3f b1 f3 d9 3e d3 25 41 c0 20 3d 2b 3d
       1.6218371 0.42568734 -3.0179336 0.04180634
000110 19 71 2f be 2e 41 ca 3f c4 d9 1f 40 9d 79 c4 bf
       -0.17132987 1.5801141 2.4976664 -1.5349613
000120 d9 51 ee be 22 f0 c4 3f 0c 23 ec 3f 86 4f 21 3d
       -0.4654682 1.5385783 1.8448195 0.03938248
000130 cb d5 c8 bf 41 4d b7 3f 60 84 9c be ab a8 07 40
       -1.5690244 1.4320451 -0.30569744 2.1196697
000140 ec 1d b4 3f 2f b6 0c 3f f3 d6 af 3f 32 83 84 be
       1.4071631 0.5496549 1.3737472 -0.25881344
000150 30 42 14 c0 90 16 11 40 6a 5d 15 40 c1 8c 23 3f
       -2.3165398 2.267002 2.3338265 0.6388665
000160 36 b9 fb be 38 b7 80 3f b1 b8 c1 3f e6 b6 f8 3e
       -0.49164742 1.0055914 1.5134488 0.4857704
000170 19 ed 8c be e1 18 f8 3f 02 eb e9 3f 8f 7b f5 3e
       -0.2752464 1.9382592 1.8274844 0.4794583
000180 f7 51 88 bf eb 88 4d bf ba df 95 3e 03 39 10 c0
       -1.0650014 -0.80287045 0.29272252 -2.2534797
000190 c5 45 dd 3e 8e 56 cb be 8d 42 f0 be 7c a5 92 3f
       0.43217292 -0.39714473 -0.46925774 1.1456752
0001a0 23 43 8f 3f 2a a6 7a 3d af 95 54 bf 68 93 20 40
       1.1192364 0.061193623 -0.830409 2.508997
0001b0 5b 3d ef 3f aa e2 3f 3e 75 c5 6c 3f
       1.8690599 0.18738809 0.92488796

pod/fully_connected_2/weight/transpose i1 [111, 200] scale=0.016341377 zero_point=0
000000 1d db fc 01 d6 db ec 0f 1e 15 cf 05 09 e0 1c 18
       0.47389993 -0.60463095 -0.06536551 0.016341377 -0.6863378 -0.60463095 -0.32682753 0.24512066 0.49024132 0.3431689 -0.8007275 0.08170688 0.14707239 -0.52292407 0.45755857 0.39219305
000010 d7 0f c9 03 fc 27 30 02 07 df c8 e5 03 30 37 1f
       -0.66999644 0.24512066 -0.89877576 0.04902413 -0.06536551 0.6373137 0.7843861 0.032682754 0.11438964 -0.53926545 -0.91511714 -0.44121718 0.04902413 0.7843861 0.89877576 0.5065827
000020 11 f5 f5 f9 18 e9 fa 43 0c ee e0 0c ec 34 05 f6
       0.27780342 -0.17975515 -0.17975515 -0.11438964 0.39219305 -0.37585166 -0.09804826 1.0948722 0.19609652 -0.29414478 -0.52292407 0.19609652 -0.32682753 0.8497516 0.08170688 -0.16341376
000030 0c 02 2f f3 05 11 12 35 01 1d 0a 38 e0 fd ee e4
       0.19609652 0.032682754 0.7680447 -0.2124379 0.08170688 0.27780342 0.29414478 0.866093 0.016341377 0.47389993 0.16341376 0.91511714 -0.52292407 -0.04902413 -0.29414478 -0.45755857
000040 bd 13 ff fe d3 d7 01 fc fe 0b d2 f7 12 db d1 dd
       -1.0948722 0.31048617 -0.016341377 -0.032682754 -0.735362 -0.66999644 0.016341377 -0.06536551 -0.032682754 0.17975515 -0.7517033 -0.14707239 0.29414478 -0.60463095 -0.7680447 -0.5719482
000050 ec 11 1a fb 06 f9 f1 e5 0f 16 ef 2a e3 fe c2 ef
       -0.32682753 0.27780342 0.4248758 -0.08170688 0.09804826 -0.11438964 -0.24512066 -0.44121718 0.24512066 0.3595103 -0.27780342 0.6863378 -0.47389993 -0.032682754 -1.0131654 -0.27780342
000060 e7 1f 1b 1b 05 e6 00 05 f9 09 d4 13 0c f2 de 0c
       -0.40853444 0.5065827 0.44121718 0.44121718 0.08170688 -0.4248758 0.0 0.08170688 -0.11438964 0.14707239 -0.7190206 0.31048617 0.19609652 -0.22877929 -0.55560684 0.19609652
000070 ea e2 f1 2c ef 37 b0 0d 13 d4 cb eb ee f8 01 09
       -0.3595103 -0.49024132 -0.24512066 0.7190206 -0.27780342 0.89877576 -1.3073101 0.2124379 0.31048617 -0.7190206 -0.866093 -0.3431689 -0.29414478 -0.13073102 0.016341377 0.14707239
000080 0b fb e3 0a 33 f7 ee f0 f6 13 15 cf ef 09 14 fa
       0.17975515 -0.08170688 -0.47389993 0.16341376 0.8334102 -0.14707239 -0.29414478 -0.26146203 -0.16341376 0.31048617 0.3431689 -0.8007275 -0.27780342 0.14707239 0.32682753 -0.09804826
000090 0c f3 ec 07 de f0 0b 19 ea f0 13 14 01 ea ea f8
       0.19609652 -0.2124379 -0.32682753 0.11438964 -0.55560684 -0.26146203 0.17975515 0.40853444 -0.3595103 -0.26146203 0.31048617 0.32682753 0.016341377 -0.3595103 -0.3595103 -0.13073102
0000a0 e9 fa 0c 0a fb f2 e3 f6 f4 e2 1b 27 32 f9 28 22
       -0.37585166 -0.09804826 0.19609652 0.16341376 -0.08170688 -0.22877929 -0.47389993 -0.16341376 -0.19609652 -0.49024132 0.44121718 0.6373137 0.8170689 -0.11438964 0.65365505 0.55560684
0000b0 02 21 ed 10 1d d8 f9 0a e2 c9 e9 ff fa 17 c9 17
       0.032682754 0.53926545 -0.31048617 0.26146203 0.47389993 -0.65365505 -0.11438964 0.16341376 -0.49024132 -0.89877576 -0.37585166 -0.016341377 -0.09804826 0.37585166 -0.89877576 0.37585166
0000c0 e8 dc e8 ca 37 11 2e f0 ea 09 12 f7 e0 06 f1 ef
       -0.39219305 -0.58828956 -0.39219305 -0.88243437 0.89877576 0.27780342 0.7517033 -0.26146203 -0.3595103 0.14707239 0.29414478 -0.14707239 -0.52292407 0.09804826 -0.24512066 -0.27780342
0000d0 f2 06 08 04 23 02 01 02 ec f6 0b f1 12 fd 22 fa
       -0.22877929 0.09804826 0.13073102 0.06536551 0.5719482 0.032682754 0.016341377 0.032682754 -0.32682753 -0.16341376 0.17975515 -0.24512066 0.29414478 -0.04902413 0.55560684 -0.09804826
0000e0 00 e0 d9 f9 12 08 ee f1 ee f4 18 12 0d f8 f5 f7
       0.0 -0.52292407 -0.6373137 -0.11438964 0.29414478 0.13073102 -0.29414478 -0.24512066 -0.29414478 -0.19609652 0.39219305 0.29414478 0.2124379 -0.13073102 -0.17975515 -0.14707239
0000f0 f6 f3 f7 0b ea 01 15 0c 15 03 01 f6 fc 0a 0c 1d
       -0.16341376 -0.2124379 -0.14707239 0.17975515 -0.3595103 0.016341377 0.3431689 0.19609652 0.3431689 0.04902413 0.016341377 -0.16341376 -0.06536551 0.16341376 0.19609652 0.47389993

pod/head_0_ngram_1/embedding_table f4 [5501, 2]
000000 88 88 88 88 88 88 88 88 79 77 98 88 89 99 7a 97
       -8.217301e-34 -8.217301e-34 -9.176255e-34 -8.0973145e-25
000010 88 88 88 88 88 88 88 88 99 88 8a 99 98 89 97 89
       -8.217301e-34 -8.217301e-34 -1.4324037e-23 -3.648132e-33
000020 88 87 89 88 87 99 77 89 88 88 88 88 88 88 88 88
       -8.277251e-34 -2.9803732e-33 -8.217301e-34 -8.217301e-34
000030 89 88 79 89 97 89 a7 89 9a 87 79 88 88 87 97 69
       -3.0036483e-33 -4.0333176e-33 -7.509011e-34 2.2898478e+25
000040 89 98 89 88 97 78 97 89 88 88 88 88 88 88 88 88
       -8.281248e-34 -3.646533e-33 -8.217301e-34 -8.217301e-34
000050 98 97 79 79 87 97 96 79 88 98 89 78 79 77 97 78
       8.099729e+34 9.773973e+34 2.23262e+34 2.4576876e+34
000060 89 88 88 88 98 98 97 88 99 97 79 88 87 98 97 79
       -8.2173015e-34 -9.123857e-34 -7.5108914e-34 9.839131e+34
000070 88 88 88 88 88 88 88 88 99 97 7a 67 98 88 a7 7a
       -8.217301e-34 -8.217301e-34 1.1833881e+24 4.34942e+35
000080 79 69 b7 87 69 88 68 98 98 97 79 89 88 88 97 78
       -2.759677e-34 -3.0054167e-24 -3.0043564e-33 2.4587688e+34
000090 88 88 88 88 88 88 88 88 99 98 79 99 98 78 97 79
       -8.217301e-34 -8.217301e-34 -1.2903815e-23 9.831034e+34
0000a0 88 79 99 88 98 78 87 99 89 89 89 88 98 78 87 99
       -9.236924e-34 -1.400738e-23 -8.277722e-34 -1.400738e-23
0000b0 a8 96 79 78 87 88 97 79 88 88 88 88 88 88 88 88
       2.0249025e+34 9.835074e+34 -8.217301e-34 -8.217301e-34
0000c0 88 a9 87 78 78 78 97 69 88 88 88 88 88 88 88 88
       2.2012456e+34 2.2889587e+25 -8.217301e-34 -8.217301e-34
0000d0 98 98 79 88 88 87 97 79 98 97 88 98 88 87 88 78
       -7.5110085e-34 9.834822e+34 -3.5308247e-24 2.2153165e+34
0000e0 7a 78 98 79 78 77 87 77 a8 97 8a 89 97 87 a6 79
       9.895908e+34 5.495181e+33 -3.336491e-33 1.0808392e+35
0000f0 a9 87 79 78 87 98 a6 7a 88 88 88 88 88 88 88 88
       2.0244272e+34 4.3250745e+35 -8.217301e-34 -8.217301e-34
000100 88 88 88 88 88 88 88 88 89 87 87 99 99 87 98 88
       -8.217301e-34 -8.217301e-34 -1.4013415e-23 -9.180046e-34
000110 88 88 88 88 88 88 88 88 a9 77 98 77 88 98 78 87
       -8.217301e-34 -8.217301e-34 6.1848134e+33 -1.8702271e-34
000120 79 88 89 88 87 78 87 89 a9 a7 79 79 98 98 b8 68
       -8.277472e-34 -3.261341e-33 8.1017654e+34 6.9738423e+24
000130 98 97 98 88 88 97 98 79 88 87 79 8b a9 86 79 9a
       -9.183807e-34 9.903782e+34 -4.8057618e-32 -5.160077e-23
000140 99 98 89 88 88 88 97 79 88 88 88 88 88 88 88 88
       -8.281263e-34 9.835075e+34 -8.217301e-34 -8.217301e-34
000150 68 99 97 98 88 79 97 88 88 87 88 88 89 98 87 98
       -3.9187486e-24 -9.116554e-34 -8.2170655e-34 -3.5050703e-24
000160 a9 a7 79 88 98 87 97 79 88 98 87 88 88 88 98 78
       -7.5127795e-34 9.834837e+34 -8.160877e-34 2.4749947e+34
000170 98 87 79 88 97 88 97 79 98 98 79 88 88 77 a7 78
       -7.50901e-34 9.83509e+34 -7.5110085e-34 2.717306e+34
000180 88 88 88 88 88 88 88 88 89 88 79 87 88 89 87 79
       -8.217301e-34 -8.217301e-34 -1.8772802e-34 8.796869e+34
000190 78 88 78 88 88 88 88 88 a8 97 79 89 98 98 a7 79
       -7.4790204e-34 -8.217301e-34 -3.0043593e-33 1.0877607e+35
0001a0 88 88 88 88 88 88 88 88 79 78 97 87 79 88 79 97
       -8.217301e-34 -8.217301e-34 -2.2790762e-34 -8.062849e-25
0001b0 aa 66 98 86 a8 69 89 78 88 88 99 88 88 88 87 89
       -5.7326897e-35 2.2296489e+34 -9.240451e-34 -3.262846e-33
0001c0 79 79 98 97 69 88 79 98 a9 87 79 79 97 87 97 79
       -9.853434e-25 -3.2251365e-24 8.097709e+34 9.834836e+34
0001d0 88 97 78 88 88 aa 88 78 88 89 88 88 78 98 88 79
       -7.480791e-34 2.2175349e+34 -8.217536e-34 8.86556e+34
0001e0 99 97 79 7a 88 98 97 78 99 97 7a 89 87 87 97 79
       3.2398917e+35 2.459783e+34 -3.0163936e-33 9.834821e+34
0001f0 88 88 88 98 68 97 88 77 88 77 98 89 78 a8 78 98
       -3.5293037e-24 5.5408067e+33 -3.6705076e-33 -3.2138304e-24
000200 88 97 88 89 88 77 98 88 77 69 87 99 86 87 78 77
       -3.288331e-33 -9.176269e-34 -1.400127e-23 5.040775e+33
000210 97 87 89 88 88 98 98 87 99 88 88 88 89 87 88 88
       -8.277265e-34 -2.2960068e-34 -8.217316e-34 -8.217066e-34
000220 98 8a 89 68 88 65 89 89 88 88 88 88 88 88 88 88
       5.1961665e+24 -3.307703e-33 -8.217301e-34 -8.217301e-34
000230 78 79 99 87 97 79 97 99 78 a8 98 89 89 79 98 79
       -2.3092274e-34 -1.5662144e-23 -3.6751096e-33 9.896177e+34
000240 88 88 88 88 88 88 88 88 98 88 88 88 88 88 97 78
       -8.217301e-34 -8.217301e-34 -8.217315e-34 2.4587688e+34
000250 99 98 68 78 79 78 88 7a 59 87 88 89 88 88 87 77
       1.8870436e+34 3.5429792e+35 -3.286809e-33 5.497885e+33
000260 89 89 97 87 79 97 88 88 a9 a7 89 89 88 86 a7 79
       -2.280079e-34 -8.220813e-34 -3.3139217e-33 1.0873027e+35
000270 7a 68 b7 87 6a 98 5a a6 88 87 88 88 88 98 88 78
       -2.7596185e-34 -7.5840503e-16 -8.2170655e-34 2.216394e+34
000280 88 98 98 77 78 78 97 68 89 7a 89 88 87 89 87 8a
       6.190022e+33 5.722397e+24 -8.274195e-34 -1.3051759e-32
000290 79 69 97 98 79 99 78 98 88 88 88 88 88 88 88 88
       -3.9139085e-24 -3.2130733e-24 -8.217301e-34 -8.217301e-34
0002a0 89 98 89 88 97 89 97 79 89 88 89 98 98 89 97 88
       -8.281248e-34 9.835343e+34 -3.5551535e-24 -9.12033e-34
0002b0 98 88 89 98 88 98 98 88 99 99 88 89 88 98 98 78
       -3.5551594e-24 -9.184027e-34 -3.288525e-33 2.4760088e+34
0002c0 88 87 88 88 88 88 98 88 88 88 88 88 88 88 88 88
       -8.2170655e-34 -9.180266e-34 -8.217301e-34 -8.217301e-34
0002d0 88 88 88 88 88 88 88 88 89 79 98 87 88 8a 98 88
       -8.217301e-34 -8.217301e-34 -2.294185e-34 -9.180736e-34
0002e0 88 88 88 88 88 88 88 88 79 89 89 97 87 78 97 99
       -8.217301e-34 -8.217301e-34 -8.88812e-25 -1.5661715e-23
0002f0 98 97 79 89 88 97 97 79 b9 87 87 67 77 a6 67 a9
       -3.0043564e-33 9.838878e+34 1.2800462e+24 -5.143669e-14
000300 78 67 99 99 97 77 78 66 89 89 98 88 78 98 88 98
       -1.586162e-23 2.9333823e+23 -9.180502e-34 -3.530913e-24
000310 88 88 88 88 88 97 88 87 98 97 88 78 88 87 97 78
       -8.217301e-34 -2.0552068e-34 2.2163346e+34 2.4587054e+34
000320 99 98 89 89 88 87 97 79 88 88 88 88 88 88 88 88
       -3.3125052e-33 9.834822e+34 -8.217301e-34 -8.217301e-34
000330 88 88 88 88 88 88 88 88 88 88 89 88 97 88 96 79
       -8.217301e-34 -8.217301e-34 -8.277486e-34 9.770186e+34
000340 99 87 88 89 89 87 87 87 88 88 88 88 88 88 88 88
       -3.2868324e-33 -2.0392203e-34 -8.217301e-34 -8.217301e-34
000350 88 88 98 87 78 98 88 88 88 88 88 88 88 88 88 88
       -2.2950664e-34 -8.2210475e-34 -8.217301e-34 -8.217301e-34
000360 87 89 88 99 76 78 88 77 a9 b7 96 b9 9a 79 89 68
       -1.4117617e-23 5.535903e+33 -0.00028747067 5.193659e+24
000370 98 98 88 87 98 87 88 78 98 88 79 88 88 89 96 89
       -2.0552692e-34 2.2153204e+34 -7.5091277e-34 -3.624052e-33
000380 98 77 88 98 97 98 87 88 99 87 78 78 79 79 78 79
       -3.5275935e-24 -8.160891e-34 2.0163123e+34 8.0634586e+34
000390 88 88 88 88 88 88 88 88 98 98 88 78 88 88 87 78
       -8.217301e-34 -8.217301e-34 2.216398e+34 2.199154e+34
0003a0 88 88 88 88 88 88 88 88 99 88 88 78 88 88 87 88
       -8.217301e-34 -8.217301e-34 2.215384e+34 -8.157115e-34
0003b0 88 77 98 98 88 87 88 88 78 98 88 78 79 88 87 78
       -3.9411775e-24 -8.2170655e-34 2.21639e+34 2.1991502e+34
0003c0 89 88 89 88 98 88 97 89 98 87 88 78 98 98 87 78
       -8.277487e-34 -3.648038e-33 2.2153204e+34 2.200172e+34
0003d0 98 87 79 79 88 88 97 78 ca a8 b8 b9 8b 95 88 8a
       8.0977005e+34 2.4587688e+34 -0.00035220972 -1.3152575e-32
0003e0 99 97 88 88 89 97 98 78 79 99 76 88 76 9a 97 77
       -8.220843e-34 2.4759457e+34 -7.420834e-34 6.149763e+33
0003f0 98 97 89 88 88 88 97 79 a8 96 89 88 98 98 97 78
       -8.281027e-34 9.835075e+34 -8.280807e-34 2.4597869e+34

pod/head_0_ngram_2/embedding_table f4 [5501, 2]
000000 88 88 88 88 88 88 88 88 88 78 67 97 87 97 99 a6
       -8.217301e-34 -8.217301e-34 -7.4792257e-25 -1.0657579e-15
000010 a7 7a 78 98 6a 97 97 97 b7 78 78 76 99 7a 97 98
       -3.2115172e-24 -9.796369e-25 1.2599004e+33 -3.9156377e-24
000020 88 87 87 8a 96 86 78 57 96 87 87 56 8c 98 67 7a
       -1.3051008e-32 2.7325693e+14 7.45082e+13 3.0062865e+35
000030 89 86 b9 88 99 78 86 77 77 97 99 76 59 88 98 87
       -1.1165912e-33 5.454795e+33 1.5576045e+33 -2.2950556e-34
000040 78 88 88 87 97 88 67 8a 98 69 77 86 98 97 87 87
       -2.0543215e-34 -1.1147935e-32 -4.6533115e-35 -2.0401641e-34
000050 68 89 88 85 89 87 7a 88 97 67 9a 78 88 95 98 78
       -1.2839854e-35 -7.539096e-34 2.5053586e+34 2.4758187e+34
000060 98 68 77 87 89 6b 96 68 7a 88 79 99 77 98 97 88
       -1.8612952e-34 5.682709e+24 -1.29005595e-23 -9.123826e-34
000070 a8 87 88 8a 57 9a 77 78 65 98 99 87 79 a7 79 96
       -1.3147352e-32 2.0087933e+34 -2.311045e-34 -2.0166905e-25
000080 96 8a 89 77 88 89 68 a8 87 78 88 89 89 98 88 77
       5.57934e+33 -1.2908409e-14 -3.2854152e-33 5.5409856e+33
000090 86 88 58 88 78 95 a7 95 88 a9 69 98 68 98 88 89
       -6.516062e-34 -6.768658e-26 -3.0200136e-24 -3.288413e-33
0000a0 95 7a 77 77 69 a8 88 87 a7 97 78 5b 99 87 79 a7
       5.019467e+33 -2.0561988e-34 6.9972538e+16 -3.46292e-15
0000b0 89 77 79 79 79 88 88 99 a9 88 97 67 99 b8 99 77
       8.095665e+34 -1.4117191e-23 1.4311965e+24 6.235668e+33
0000c0 87 97 8b 79 89 89 97 8a 69 7d 4c 78 46 8b 59 97
       9.060033e+34 -1.4592506e-32 1.659019e+34 -7.029227e-25
0000d0 78 78 77 87 9a 87 87 79 87 88 98 89 98 8a 97 78
       -1.8617617e-34 8.79638e+34 -3.672106e-33 2.4588995e+34
0000e0 87 88 7a 79 a9 aa 88 a8 87 79 77 86 78 99 79 98
       8.1302707e+34 -1.5173045e-14 -4.654482e-35 -3.2259978e-24
0000f0 88 58 88 89 99 98 88 88 96 87 89 86 89 89 87 87
       -3.2824063e-33 -8.221078e-34 -5.17329e-35 -2.0393378e-34
000100 87 98 88 98 96 98 88 a8 89 8d 88 97 97 a7 67 99
       -3.530919e-24 -1.5165207e-14 -8.8245225e-25 -1.19762646e-23
000110 87 7a 89 78 87 89 89 86 88 9a 98 97 98 79 97 79
       2.2307182e+34 -5.173575e-35 -9.861779e-25 9.831288e+34
000120 46 89 88 87 7c b7 98 67 98 68 97 87 7a 97 79 69
       -2.0543688e-34 1.4423688e+24 -2.278143e-34 1.8858616e+25
000130 99 9a 58 84 99 77 69 99 88 78 9a 98 68 89 87 76
       -2.5461666e-36 -1.206997e-23 -3.9929772e-24 1.3745059e+33
000140 86 69 79 88 67 89 67 96 88 69 8b 77 98 98 89 97
       -7.5054754e-34 -1.8703388e-25 5.655232e+33 -8.891938e-25
000150 76 a7 78 89 89 78 76 69 89 7a 97 7a 88 69 88 96
       -2.9930654e-33 1.862281e+25 3.9326107e+35 -2.2038585e-25
000160 88 98 99 79 78 9a a9 98 95 69 88 77 69 97 87 87
       9.968939e+34 -4.384145e-24 5.5335456e+33 -2.0401533e-34
000170 98 68 79 88 78 98 8b 87 87 67 88 89 98 79 97 77
       -7.505366e-34 -2.1004009e-34 -3.2838166e-33 6.144555e+33
000180 79 88 87 87 86 97 65 88 87 99 88 99 87 89 87 88
       -2.0392754e-34 -6.9090296e-34 -1.412408e-23 -8.1573495e-34
000190 98 99 97 78 88 88 97 98 69 88 78 87 88 a8 78 87
       2.4598502e+34 -3.9170446e-24 -1.8697534e-34 -1.8706973e-34
0001a0 76 99 8a a8 98 87 87 a6 76 8a 89 96 7b 7a 98 78
       -1.538763e-14 -9.40426e-16 -2.2220925e-25 2.4741041e+34
0001b0 98 89 98 77 7a 87 99 97 77 78 79 8a 78 98 88 77
       6.187655e+33 -9.921592e-25 -1.2011571e-32 5.540975e+33
0001c0 9a 97 79 89 77 88 77 88 97 79 97 97 7a 89 87 86
       -3.0043567e-33 -7.4489272e-34 -9.78884e-25 -5.098336e-35
0001d0 89 87 79 89 88 98 68 68 88 87 79 88 87 98 97 98
       -3.0036013e-33 4.393611e+24 -7.509003e-34 -3.91866e-24
0001e0 78 97 79 88 88 99 88 69 88 9a a7 77 8a ab 76 77
       -7.5108763e-34 2.0642368e+25 6.798811e+33 5.0030635e+33
0001f0 59 78 67 99 6a 88 67 87 78 78 78 99 78 99 98 98
       -1.1966724e-23 -1.7418597e-34 -1.2845628e-23 -3.9446043e-24
000200 a8 89 97 97 6a 98 78 a5 98 89 86 78 68 9a 88 88
       -9.792896e-25 -2.1562211e-16 2.1829953e+34 -8.221503e-34
000210 98 89 78 a9 79 88 69 77 78 7a 89 a8 88 86 68 98
       -5.5186406e-14 4.736614e+33 -1.5263168e-14 -3.0053218e-24
000220 85 45 87 75 68 98 77 77 b6 7a 76 97 7a 99 98 96
       3.4295415e+32 5.02183e+33 -7.964177e-25 -2.4653782e-25
000230 87 89 97 87 78 78 87 97 97 88 77 67 79 88 89 87
       -2.2800786e-34 -8.754581e-25 1.16894416e+24 -2.069368e-34
000240 89 77 67 88 87 97 86 88 87 98 d7 98 ac 6b 67 78
       -6.9654547e-34 -8.100456e-34 -5.573021e-24 1.8775069e+34
000250 56 b8 78 a6 47 9c 77 79 88 8a 99 77 87 8a 89 98
       -8.6292106e-16 8.035419e+34 6.2283685e+33 -3.5553547e-24
000260 a7 57 66 78 88 a8 88 78 98 98 98 a7 89 68 98 78
       1.8687595e+34 2.217408e+34 -4.2353917e-15 2.4729667e+34
000270 97 76 87 87 7a a8 7a 99 68 8a 78 77 ba 78 9a a8
       -2.0382243e-34 -1.2958721e-23 5.0410033e+33 -1.7149791e-14
000280 86 88 78 69 98 89 88 87 77 78 67 78 89 a8 79 89
       1.8778645e+25 -2.0543876e-34 1.8779123e+34 -3.005153e-33
000290 77 67 97 89 88 89 69 78 a7 6a 88 87 6b 98 98 87
       -3.6449226e-33 1.8946791e+34 -2.052569e-34 -2.2960001e-34
0002a0 69 87 aa 69 a8 79 a7 88 67 97 69 89 aa 89 77 78
       2.5769606e+25 -1.0079548e-33 -2.8117544e-33 2.0082648e+34
0002b0 78 99 78 97 89 97 69 98 97 78 97 89 8a 97 89 88
       -8.0326827e-25 -3.019105e-24 -3.646533e-33 -8.281014e-34
0002c0 98 87 a7 87 87 98 87 87 87 67 79 98 a9 88 89 89
       -2.5207062e-34 -2.040219e-34 -3.2234764e-24 -3.3110065e-33
0002d0 87 89 66 77 8a a6 96 89 a9 76 87 98 78 89 86 a9
       4.6758502e+33 -3.62678e-33 -3.50165e-24 -5.9746424e-14
0002e0 59 69 9a 79 58 88 68 75 97 88 87 78 79 97 88 98
       1.002188e+35 2.9477008e+32 2.1991576e+34 -3.5308124e-24
0002f0 a6 a6 99 69 95 99 77 76 a7 77 a8 79 89 7c a8 75
       2.3219078e+25 1.2554808e+33 1.0934159e+35 4.2716394e+32
000300 69 78 a9 59 88 89 8b 77 a8 88 98 87 88 88 87 87
       5.962708e+15 5.6603026e+33 -2.2950737e-34 -2.0392788e-34
000310 97 87 98 89 89 98 a7 79 87 9b 97 88 7a 86 98 87
       -3.6720177e-33 1.0877592e+35 -9.124546e-34 -2.2949456e-34
000320 96 79 87 69 98 9a 87 97 78 98 78 76 79 88 98 78
       2.0472395e+25 -8.763195e-25 1.26052935e+33 2.474991e+34
000330 99 8a 88 78 8a 99 98 78 97 99 96 99 aa a6 79 87
       2.2155108e+34 2.4760727e+34 -1.5571671e-23 -1.8781656e-34
000340 7a 79 b9 88 58 89 78 a5 8a 99 97 a8 89 77 66 87
       -1.11628415e-33 -2.1557105e-16 -1.6830955e-14 -1.7338405e-34
000350 a9 a8 77 88 89 88 a8 67 b7 77 a8 88 ab 67 97 77
       -7.452712e-34 1.5917524e+24 -1.0139277e-33 6.1417145e+33
000360 78 89 89 77 a8 98 89 a7 9a 9b 98 88 99 87 68 a8
       5.579163e+33 -3.819065e-15 -9.184749e-34 -1.290799e-14
000370 a9 9a 88 99 89 99 95 87 97 7a 87 98 88 a6 87 86
       -1.4124537e-23 -2.2509268e-34 -3.5020466e-24 -5.102605e-35
000380 87 5a 9a 88 7a a9 98 68 78 88 88 99 89 88 88 89
       -9.289821e-34 5.767408e+24 -1.411719e-23 -3.2869206e-33
000390 78 88 68 98 98 78 97 98 a6 77 87 98 58 78 87 66
       -3.0054196e-24 -3.9154354e-24 -3.5017496e-24 3.198697e+23
0003a0 98 88 88 87 89 97 97 87 88 78 87 88 79 98 88 89
       -2.0543288e-34 -2.280902e-34 -8.153354e-34 -3.2884194e-33
0003b0 98 78 8a 77 88 a7 96 87 88 87 88 98 98 78 88 99
       5.617054e+33 -2.2667958e-34 -3.5292028e-24 -1.4110778e-23
0003c0 a5 98 89 97 a8 88 96 88 a5 98 78 87 78 97 a8 98
       -8.89195e-25 -9.059924e-34 -1.8702305e-34 -4.3579927e-24
0003d0 a5 88 77 87 78 a8 89 86 76 88 78 78 87 98 99 85
       -1.8622371e-34 -5.1781215e-35 2.0163397e+34 -1.444408e-35
0003e0 99 88 89 89 88 b9 98 87 98 88 88 99 96 98 78 a9
       -3.3110006e-33 -2.2979464e-34 -1.411724e-23 -5.519941e-14
0003f0 88 78 78 69 57 98 89 86 77 89 a8 78 a8 aa 99 98
       1.8773925e+25 -5.1757516e-35 2.7346687e+34 -3.972189e-24

pod/head_0_ngram_3/embedding_table f4 [13001, 2]
000000 88 88 88 88 88 88 88 88 96 97 89 79 78 8a 78 88
       -8.217301e-34 -8.217301e-34 8.93024e+34 -7.4792555e-34
000010 7a 87 99 aa 86 9b 78 98 86 a9 6a ab 89 85 89 95
       -2.7272265e-13 -3.2131768e-24 -8.336876e-13 -5.554454e-26
000020 67 98 88 69 77 86 96 77 66 79 99 88 88 87 96 8a
       2.0641701e+25 6.1060297e+33 -9.236893e-34 -1.4495456e-32
000030 8a 98 89 78 a7 7a 8b 98 87 a8 98 88 68 98 99 aa
       2.2326204e+34 -3.6054505e-24 -9.187788e-34 -2.7284013e-13
000040 be 89 7a 87 98 88 aa 47 98 6a 77 79 87 8a 87 97
       -1.8848388e-34 87313.19 8.0291206e+34 -8.75914e-25
000050 88 76 85 97 8b 77 98 9b 79 79 8b 88 69 89 78 88
       -8.624845e-25 -2.5223543e-22 -8.394316e-34 -7.479131e-34
000060 a8 68 89 99 79 b7 55 88 98 9a 97 78 98 a6 79 89
       -1.4207738e-23 -6.4313027e-34 2.4599136e+34 -3.0050617e-33
000070 89 97 88 88 88 78 98 76 58 88 98 a7 99 99 77 98
       -8.220828e-34 1.5462379e+33 -4.23363e-15 -3.2001549e-24
000080 77 76 98 9a 99 97 67 97 88 78 78 97 78 6a 78 98
       -6.3057117e-23 -7.483147e-25 -8.0285254e-25 -3.2107002e-24
000090 78 8a 77 76 88 77 68 97 88 96 b8 7a 98 88 78 a8
       1.25518145e+33 -7.5114113e-25 4.7921788e+35 -1.37963846e-14
0000a0 87 a9 a9 89 99 9a 88 87 99 67 97 78 a8 78 79 89
       -4.0844693e-33 -2.055387e-34 2.4566814e+34 -3.0029017e-33
0000b0 89 68 86 59 89 aa 75 98 98 68 aa 88 b8 89 a7 69
       4.729073e+15 -3.1751606e-24 -1.0256093e-33 2.5317621e+25
0000c0 b8 98 78 78 67 78 98 89 8a 77 8a 78 88 86 a7 87
       2.0168549e+34 -3.6705895e-33 2.2467547e+34 -2.5206438e-34
0000d0 89 99 b8 7a a8 88 75 a7 99 87 9a 89 78 77 77 89
       4.7924834e+35 -3.4074662e-15 -3.7201667e-33 -2.9787717e-33
0000e0 99 98 98 68 aa 99 69 89 96 57 88 86 77 8c a8 68
       5.764917e+24 -2.8118607e-33 -5.128621e-35 6.3675895e+24
0000f0 98 87 89 89 77 87 77 67 75 75 96 89 87 7a 78 8a
       -3.3109062e-33 1.1689234e+24 -3.6221643e-33 -1.19638105e-32
000100 8b 8a 59 97 99 73 a9 87 a8 49 88 98 87 96 76 68
       -7.0291347e-25 -2.5496236e-34 -3.522955e-24 4.6579156e+24
000110 87 65 8a 8a 88 99 87 59 ba 89 88 9a 77 89 69 68
       -1.3327107e-32 4.7709914e+15 -5.647079e-23 4.4113887e+24
000120 88 79 6a 97 89 96 7a 6a 67 a6 86 86 86 8a 88 7b
       -7.576287e-25 7.5735584e+25 -5.0649704e-35 1.417924e+36
000130 88 57 88 68 76 8a a6 98 95 97 95 79 99 93 88 97
       5.150852e+24 -4.3049804e-24 9.709084e+34 -8.826053e-25
000140 85 87 a8 87 98 8a 97 a7 89 98 79 68 76 97 7c 68
       -2.5357482e-34 -4.2061183e-15 4.714732e+24 4.7713213e+24
000150 9a 78 77 89 79 89 88 86 87 89 67 78 89 99 78 88
       -2.978825e-33 -5.135951e-35 1.8784531e+34 -7.4810265e-34
000160 87 85 79 99 87 99 86 7a 99 8a b8 95 98 97 88 99
       -1.2899964e-23 3.4944084e+35 -7.4535677e-26 -1.4123299e-23
000170 78 77 aa 9a aa 96 88 86 85 8a 97 46 98 87 1b a4
       -7.0503364e-23 -5.1378895e-35 19397.26 -3.372512e-17
000180 9a 87 76 66 88 75 a8 88 8a 69 77 77 98 79 88 b7
       2.9105089e+23 -1.0138764e-33 5.0181168e+33 -1.6269085e-05
000190 69 67 78 79 ba 98 6a 6c 89 99 88 aa 88 a8 78 9a
       8.061169e+34 1.1344395e+27 -2.426499e-13 -5.1421336e-23
0001a0 a6 68 89 88 8a a8 89 88 68 8a 78 98 69 89 97 69
       -8.26999e-34 -8.285011e-34 -3.2123126e-24 2.2899587e+25
0001b0 89 78 99 8b 7a 97 88 58 76 67 8b b9 5b 69 76 94
       -5.911482e-32 1.2014733e+15 -0.0002658923 -1.2440604e-26
0001c0 aa 68 76 86 cb 95 96 a7 87 79 89 78 9a 87 86 87
       -4.6344353e-35 -4.179577e-15 2.2306548e+34 -2.0241779e-34
0001d0 97 79 87 9a 79 88 78 a8 a7 69 66 9b 9b a6 a6 c7
       -5.603113e-23 -1.3796358e-14 -1.9059292e-22 -85325.21
0001e0 88 78 7a 98 8a b6 a8 a9 b9 97 89 9b 78 98 7a 9a
       -3.2372595e-24 -7.492364e-14 -2.2762797e-22 -5.182195e-23
0001f0 76 68 78 57 89 79 75 a9 a5 77 78 9a 77 98 87 87
       2.7312754e+14 -5.4506343e-14 -5.1381846e-23 -2.0402153e-34
000200 a9 a6 89 97 89 8a a8 9a 99 79 89 89 89 78 a9 99
       -8.895488e-25 -6.970699e-23 -3.30959e-33 -1.7522874e-23
000210 89 aa 98 88 9a a7 85 97 99 86 65 aa a9 88 68 89
       -9.18826e-34 -8.637232e-25 -2.0385984e-13 -2.7990241e-33
000220 77 88 68 77 79 98 67 78 85 88 77 78 89 79 99 88
       4.716331e+33 1.8789267e+34 2.0082285e+34 -9.236925e-34
000230 79 68 88 88 88 78 98 88 7b 98 79 79 97 98 68 99
       -8.209764e-34 -9.176504e-34 8.099841e+34 -1.2024934e-23
000240 b8 88 b8 87 98 88 89 96 89 9a 77 77 88 89 a7 67
       -2.77656e-34 -2.2219747e-25 5.0219987e+33 1.5823444e+24
000250 78 98 77 67 78 a7 89 78 a9 78 77 89 77 87 79 ab
       1.1692371e+24 2.2335667e+34 -2.9788278e-33 -8.8650566e-13
000260 88 97 88 88 88 89 89 98 76 77 75 78 77 58 98 a9
       -8.220827e-34 -3.555254e-24 1.991462e+34 -6.765502e-14
000270 88 59 77 a7 68 8a 89 8a 99 87 78 64 79 86 75 88
       -3.432667e-15 -1.3244683e-32 1.8338253e+22 -7.3885078e-34
000280 89 78 a9 87 86 78 55 76 89 78 88 98 88 78 88 88
       -2.5499138e-34 1.0824255e+33 -3.5276885e-24 -8.213539e-34
000290 87 99 67 8a 9a 98 98 87 8b 99 77 6a 75 79 58 7a
       -1.1151121e-32 -2.296011e-34 7.483244e+25 2.809999e+35
0002a0 9a 77 a9 79 8b b7 99 a7 88 77 88 77 a7 56 87 88
       1.099905e+35 -4.266503e-15 5.535756e+33 -8.145389e-34
0002b0 8a 77 69 79 98 9b a6 77 87 98 68 79 98 89 98 88
       7.5764357e+34 6.758415e+33 7.5481656e+34 -9.180515e-34
0002c0 97 a6 58 88 68 79 8b 97 95 87 57 68 78 9a 96 68
       -6.519596e-34 -9.013312e-25 4.0712394e+24 5.6896353e+24
0002d0 a6 98 66 76 67 48 96 78 77 87 89 78 94 87 87 7a
       1.1692621e+33 2.4384782e+34 2.2315382e+34 3.5185496e+35
0002e0 58 89 76 a9 98 95 78 78 88 79 46 68 97 87 97 87
       -5.47421e-14 2.0167558e+34 3.7490817e+24 -2.2799647e-34
0002f0 9b 86 68 85 78 88 84 b7 b7 76 a5 89 67 99 97 87
       -1.0933311e-35 -1.5799174e-05 -3.9833944e-33 -2.2810117e-34
000300 79 69 98 86 9a 96 88 87 59 7b 99 66 97 9a 78 8a
       -5.7331023e-35 -2.0551521e-34 3.623987e+23 -1.1969841e-32
000310 98 8a 57 79 65 aa 59 87 a9 74 83 58 c9 88 48 6a
       6.9947177e+34 -1.637534e-34 1.1562966e+15 6.060778e+25
000320 a5 69 68 b9 88 59 9b a6 a9 78 98 68 a8 88 87 98
       -0.000221646 -1.0779553e-15 5.760204e+24 -3.503467e-24
000330 96 99 a7 78 89 87 79 97 ba 58 88 86 87 76 68 97
       2.7194646e+34 -8.062731e-25 -5.1287886e-35 -7.5112846e-25
000340 9a 89 97 b9 98 86 78 9b 79 69 98 78 98 98 97 88
       -0.00028903486 -2.0557569e-22 2.4730261e+34 -9.123857e-34
000350 77 c9 99 85 96 5a b7 6d 97 98 79 68 98 88 78 89
       -1.4462057e-35 7.0931586e+27 4.7147362e+24 -2.991614e-33
000360 69 78 8a 96 77 a8 98 88 88 6a 89 a8 85 89 77 96
       -2.2371092e-25 -9.187773e-34 -1.5256256e-14 -1.9995895e-25
000370 59 78 86 8a ba 97 97 a8 96 88 79 68 67 66 99 76
       -1.2949e-32 -1.6830169e-14 4.7135553e+24 1.5556609e+33
000380 88 75 b8 8b 79 98 99 56 8a 87 6b 88 85 76 99 69
       -7.1051063e-32 8.444007e+13 -7.0877066e-34 2.3190668e+25
000390 69 98 88 97 85 98 8a 85 79 cb 87 87 95 98 97 78
       -8.827268e-25 -1.3033484e-35 -2.0432133e-34 2.459786e+34
0003a0 97 89 99 89 76 69 a7 89 66 a7 79 88 65 7a 98 86
       -3.69628e-33 -4.0302963e-33 -7.512749e-34 -5.735589e-35
0003b0 79 38 89 a9 b8 b7 79 88 87 77 58 89 97 97 96 99
       -6.0938186e-14 -7.514667e-34 -2.6056256e-33 -1.5570863e-23
0003c0 68 69 87 9a 88 79 86 97 a7 8b 58 79 b6 95 6b 78
       -5.6004984e-23 -8.690226e-25 7.027304e+34 1.911291e+34
0003d0 98 97 a7 78 8a 68 a8 98 97 98 88 89 77 b8 97 99
       2.7193383e+34 -4.353254e-24 -3.2884304e-33 -1.5687539e-23
0003e0 98 76 87 68 87 97 78 89 a9 76 88 98 8b 87 96 76
       5.117657e+24 -2.9923162e-33 -3.5274992e-24 1.5265501e+33
0003f0 99 87 6b 77 77 89 87 a7 97 97 78 77 97 88 78 99
       4.7771094e+33 -3.7619067e-15 5.0420478e+33 -1.28488836e-23
