tmp/chrome/optimization_guide_model_store/26/E6DC4029A1E4B4C1/AAD5473632F1F744/model.tflite (tflite, 7112 bytes, 3 tensors)

prediction_model/logits/MatMul f4 [1, 64]
0	0xbe614c07	-0.22001658
1	0x3e7c69d6	0.24649748
2	0x3c329924	0.010900769
3	0x3f59a62a	0.8501917
4	0x3ea10fda	0.31457406
5	0xbe271482	-0.16316417
6	0xbf02ad4a	-0.5104567
7	0x3cbf931a	0.023385573
8	0xbf5e0017	-0.8671889
9	0xbf3fadf6	-0.7487482
10	0xbf5be494	-0.8589566
11	0x3f02a509	0.51033074
12	0xbe236695	-0.159571
13	0x3f1c98ef	0.6117086
14	0xbdcff102	-0.101533905
15	0xbdd5dba3	-0.10442283
16	0x3dfd9c25	0.12383298
17	0x3f0e6de9	0.5563646
18	0x3efb6da0	0.49107075
19	0xbe3ed9d4	-0.18637782
20	0x3f236ba0	0.638361
21	0x3f56cf9a	0.83910525
22	0xbf8c1236	-1.0943058
23	0x3dc1e9fb	0.09468456
24	0xbe5c0b37	-0.21488653
25	0xbf77f7e9	-0.96862656
26	0xbf83dd80	-1.0301971
27	0x3e1ddd22	0.15416387
28	0x3e0ba49d	0.13637014
29	0x3e2e5590	0.17024827
30	0xbe201dce	-0.1563637
31	0xbf5d20ba	-0.8637806
32	0xbe1ece9b	-0.15508501
33	0xbeabf363	-0.33584127
34	0xbe67d9a3	-0.22641616
35	0x3e1f1c88	0.15538228
36	0x3f1bc0de	0.60841167
37	0x3e1f8f1d	0.15581937
38	0x3d980a2e	0.074238166
39	0xbf2021e0	-0.6255169
40	0xbdf3ef34	-0.11910859
41	0xbdfb479e	-0.12269519
42	0x3e2d1180	0.16901207
43	0x3f309d84	0.6899035
44	0xbe285e99	-0.16442336
45	0xbee5c199	-0.44874266
46	0xbe24ef9c	-0.16107029
47	0x3e02a5f8	0.12758625
48	0xbe7a465e	-0.24440905
49	0xbe4f7a83	-0.20261578
50	0xbe0dc5f3	-0.13845043
51	0xbd9934e3	-0.074807905
52	0xbe8623d5	-0.26199213
53	0xbf19eb0c	-0.6012428
54	0x3e73b230	0.23798442
55	0x3e517411	0.20454432
56	0xbf46ece9	-0.77705246
57	0x3e37c122	0.17944768
58	0xbdddceee	-0.10830484
59	0x3f80235c	1.0010791
60	0x3e291acd	0.1651413
61	0xbf019c4e	-0.5062913
62	0x3e4f48ff	0.2024269
63	0xbe10b608	-0.1413194

prediction_model/dense/BiasAdd/ReadVariableOp f4 [64]
0	0xbec77f35	-0.3896424
1	0xbee886c3	-0.45415315
2	0xbd0bb9c0	-0.034112692
3	0x3d555afb	0.05208872
4	0xbe27086b	-0.16311805
5	0xbdcd3ba8	-0.10021144
6	0xbf3fa29f	-0.74857515
7	0xbcd4acb8	-0.025961265
8	0xbe6093b6	-0.21931347
9	0xc003485e	-2.051292
10	0xbf3292fb	-0.69755524
11	0xbfa2249e	-1.2667425
12	0xbf78f65b	-0.9725091
13	0xbfca1760	-1.5788383
14	0xbdc365e5	-0.09540919
15	0xbf6d1cb1	-0.92621905
16	0xbd647447	-0.055774953
17	0x3eebb865	0.4603912
18	0xbc3c593d	-0.011495885
19	0xbe211587	-0.15730868
20	0x3ee1208a	0.43970138
21	0xc0023e80	-2.0350647
22	0xbde31ab0	-0.110890746
23	0x3f693b40	0.91106033
24	0xbd82d51a	-0.06388302
25	0x3f910d10	1.1332111
26	0xbebc594d	-0.3678688
27	0xbbf457ca	-0.0074567543
28	0x3f282443	0.6568033
29	0x3dfb95d3	0.12284436
30	0xbf293d5e	-0.66109264
31	0x3f8aa290	1.083086
32	0xbf31409c	-0.6923921
33	0xbf1a0846	-0.60168874
34	0xbd448b0b	-0.047984164
35	0x3caa0688	0.020755067
36	0xbf7935c5	-0.9734767
37	0xbefb97f7	-0.49139377
38	0xbcf05e61	-0.029341878
39	0xbf881908	-1.0632639
40	0xbf8d31aa	-1.1030781
41	0xbe503583	-0.20332913
42	0x3ebbaaf1	0.36653855
43	0xbf8632db	-1.048427
44	0xbea71141	-0.3263035
45	0xbfcf5225	-1.6196944
46	0xbd0668bb	-0.032814723
47	0xbea1ef58	-0.31627917
48	0xbea3d8cd	-0.32001343
49	0x3eab6206	0.33473223
50	0xbf06884f	-0.5255174
51	0xbdb9cf3b	-0.09072729
52	0x3e0ebfc2	0.13940337
53	0xbee1f82a	-0.44134647
54	0xbd785bc5	-0.060634393
55	0xbee4dd71	-0.44700196
56	0xbfab8581	-1.3400117
57	0x3b72186a	0.0036940821
58	0xbf3c7d79	-0.73628956
59	0xbf7344eb	-0.95027035
60	0xbe3fd193	-0.1873229
61	0xbf8915d1	-1.0709783
62	0xbc2d1958	-0.010565124
63	0xbf72cb89	-0.9484182

prediction_model/dense/MatMul i1 [64, 20] scale=0.23645417 zero_point=0
0	0xfd	-0.7093625
1	0xfe	-0.47290835
2	0xfe	-0.47290835
3	0x02	0.47290835
4	0xfa	-1.418725
5	0x00	0.0
6	0x04	0.9458167
7	0xfd	-0.7093625
8	0x02	0.47290835
9	0x01	0.23645417
10	0x09	2.1280875
11	0xff	-0.23645417
12	0x01	0.23645417
13	0xff	-0.23645417
14	0x02	0.47290835
15	0xf8	-1.8916334
16	0x03	0.7093625
17	0x00	0.0
18	0xe2	-7.093625
19	0x07	1.6551793
20	0xf6	-2.3645418
21	0x00	0.0
22	0x01	0.23645417
23	0x00	0.0
24	0x04	0.9458167
25	0x03	0.7093625
26	0x05	1.1822709
27	0x05	1.1822709
28	0xfe	-0.47290835
29	0xfe	-0.47290835
30	0x06	1.418725
31	0xfe	-0.47290835
32	0x00	0.0
33	0x01	0.23645417
34	0xdf	-7.8029876
35	0x03	0.7093625
36	0x02	0.47290835
37	0xfe	-0.47290835
38	0x02	0.47290835
39	0x08	1.8916334
40	0x00	0.0
41	0xff	-0.23645417
42	0x00	0.0
43	0x00	0.0
44	0x01	0.23645417
45	0x00	0.0
46	0xff	-0.23645417
47	0x00	0.0
48	0x00	0.0
49	0x00	0.0
50	0x00	0.0
51	0xff	-0.23645417
52	0x00	0.0
53	0x00	0.0
54	0xff	-0.23645417
55	0x01	0.23645417
56	0xff	-0.23645417
57	0x00	0.0
58	0xff	-0.23645417
59	0xff	-0.23645417
60	0xff	-0.23645417
61	0xd3	-10.640438
62	0xef	-4.019721
63	0xec	-4.7290835
64	0xe8	-5.6749
65	0xa5	-21.51733
66	0x84	-29.320318
67	0x81	-30.02968
68	0x05	1.1822709
69	0x01	0.23645417
70	0x19	5.9113545
71	0xff	-0.23645417
72	0xfe	-0.47290835
73	0xff	-0.23645417
74	0x03	0.7093625
75	0xff	-0.23645417
76	0xfe	-0.47290835
77	0x01	0.23645417
78	0x04	0.9458167
79	0x03	0.7093625
80	0x02	0.47290835
81	0xf5	-2.600996
82	0x01	0.23645417
83	0x04	0.9458167
84	0x05	1.1822709
85	0xd8	-9.458167
86	0x02	0.47290835
87	0xfd	-0.7093625
88	0x03	0.7093625
89	0xfd	-0.7093625
90	0x02	0.47290835
91	0x00	0.0
92	0xee	-4.256175
93	0xfd	-0.7093625
94	0x04	0.9458167
95	0x04	0.9458167
96	0xfd	-0.7093625
97	0x01	0.23645417
98	0xff	-0.23645417
99	0x01	0.23645417
100	0xff	-0.23645417
101	0xff	-0.23645417
102	0x01	0.23645417
103	0xff	-0.23645417
104	0x00	0.0
105	0x00	0.0
106	0xff	-0.23645417
107	0x00	0.0
108	0xff	-0.23645417
109	0xff	-0.23645417
110	0x00	0.0
111	0x00	0.0
112	0x01	0.23645417
113	0xff	-0.23645417
114	0xff	-0.23645417
115	0x00	0.0
116	0xff	-0.23645417
117	0xfe	-0.47290835
118	0x00	0.0
119	0xfe	-0.47290835
120	0x03	0.7093625
121	0x03	0.7093625
122	0x03	0.7093625
123	0xf2	-3.3103585
124	0x02	0.47290835
125	0x01	0.23645417
126	0x05	1.1822709
127	0xfd	-0.7093625
128	0xfd	-0.7093625
129	0x01	0.23645417
130	0x1a	6.1478086
131	0x05	1.1822709
132	0xfb	-1.1822709
133	0x01	0.23645417
134	0x00	0.0
135	0x04	0.9458167
136	0x03	0.7093625
137	0xff	-0.23645417
138	0xd6	-9.931075
139	0x00	0.0
140	0x00	0.0
141	0xff	-0.23645417
142	0xff	-0.23645417
143	0xff	-0.23645417
144	0x01	0.23645417
145	0xff	-0.23645417
146	0x01	0.23645417
147	0x00	0.0
148	0x00	0.0
149	0xff	-0.23645417
150	0xff	-0.23645417
151	0x00	0.0
152	0x00	0.0
153	0x00	0.0
154	0x00	0.0
155	0xff	-0.23645417
156	0xff	-0.23645417
157	0x00	0.0
158	0x00	0.0
159	0xff	-0.23645417
160	0x01	0.23645417
161	0x01	0.23645417
162	0xfc	-0.9458167
163	0x02	0.47290835
164	0xfc	-0.9458167
165	0x01	0.23645417
166	0x02	0.47290835
167	0x04	0.9458167
168	0x06	1.418725
169	0x01	0.23645417
170	0xeb	-4.9655375
171	0xff	-0.23645417
172	0xf3	-3.0739043
173	0xfd	-0.7093625
174	0x00	0.0
175	0xfa	-1.418725
176	0x08	1.8916334
177	0x03	0.7093625
178	0x00	0.0
179	0xfe	-0.47290835
180	0xfe	-0.47290835
181	0x04	0.9458167
182	0x06	1.418725
183	0x01	0.23645417
184	0x00	0.0
185	0x00	0.0
186	0x00	0.0
187	0x02	0.47290835
188	0xfe	-0.47290835
189	0xfe	-0.47290835
190	0xf3	-3.0739043
191	0xff	-0.23645417
192	0x00	0.0
193	0xfd	-0.7093625
194	0x02	0.47290835
195	0xfa	-1.418725
196	0x08	1.8916334
197	0x01	0.23645417
198	0x00	0.0
199	0x00	0.0
200	0x00	0.0
201	0x00	0.0
202	0xfc	-0.9458167
203	0x09	2.1280875
204	0xe7	-5.9113545
205	0xfe	-0.47290835
206	0xfd	-0.7093625
207	0x03	0.7093625
208	0x02	0.47290835
209	0x00	0.0
210	0xf9	-1.6551793
211	0x00	0.0
212	0x00	0.0
213	0x01	0.23645417
214	0xff	-0.23645417
215	0x04	0.9458167
216	0xfb	-1.1822709
217	0x00	0.0
218	0xff	-0.23645417
219	0x02	0.47290835
220	0xfc	-0.9458167
221	0x00	0.0
222	0x01	0.23645417
223	0x04	0.9458167
224	0x0d	3.0739043
225	0x04	0.9458167
226	0x01	0.23645417
227	0xff	-0.23645417
228	0x02	0.47290835
229	0xfe	-0.47290835
230	0xf8	-1.8916334
231	0x06	1.418725
232	0xf4	-2.83745
233	0x00	0.0
234	0x02	0.47290835
235	0x04	0.9458167
236	0x01	0.23645417
237	0x01	0.23645417
238	0xfd	-0.7093625
239	0xfd	-0.7093625
240	0x01	0.23645417
241	0x02	0.47290835
242	0x01	0.23645417
243	0x00	0.0
244	0xf9	-1.6551793
245	0xfe	-0.47290835
246	0xf9	-1.6551793
247	0xfb	-1.1822709
248	0x00	0.0
249	0x00	0.0
250	0x01	0.23645417
251	0xfc	-0.9458167
252	0x01	0.23645417
253	0x01	0.23645417
254	0x04	0.9458167
255	0xfe	-0.47290835
