temp/chrome/optimization_guide_model_store/20/E6DC4029A1E4B4C1/FF1C7CFDC9ECFDB9/model.tflite (tflite, 64852 bytes, 5 tensors)

arith.constant f4 [1, 64]
0.00029288503 -0.019789968 0.26228464 -0.35126182 0.25301424 -0.015937323 0.35058716 -0.19247761
-0.26029354 0.10304516 -0.09516026 0.04109839 0.5593679 0.045390338 -0.10239679 0.19727589
-0.30145857 -0.15535316 -0.29482365 -0.0054063797 -0.14223158 0.18157662 0.09343454 -0.25987023
-0.13569483 -0.020350903 -0.24940728 -0.13229436 0.18895441 -0.20044068 -0.14794609 -0.1809947
-0.14977448 0.067125455 0.08906049 0.3243999 0.23661517 -0.23985416 0.0889388 -0.08773043
0.047637895 -0.11640642 0.31221613 -0.26409483 -0.04770372 -0.025709542 0.064993754 0.022079254
-0.18564834 0.28527272 0.37373897 0.077138536 0.3618082 -0.11583067 -0.018384997 0.2356567
0.05569678 -0.25367546 0.30686623 -0.3286354 -0.2518491 0.36747473 0.0748414 -0.038465027
00000000: 5d8e 9939 921e a2bc 2c4a 863e 97d8 b3be
00000010: 158b 813e fd8e 82bc 2980 b33e da18 45be
00000020: 3245 85be 5709 d33d 62e3 c2bd c956 283d
00000030: bc32 0f3f 38eb 393d 69b5 d1bd b102 4a3e
00000040: c758 9abe e614 1fbe 20f3 96be 0028 b1bb
00000050: 28a5 11be 39ef 393e 9c5a bf3d b60d 85be
00000060: 96f3 0abe f0b6 a6bc 9f64 7fbe 2c78 07be
00000070: 447d 413e 5240 4dbe 2e7f 17be ad56 39be
00000080: 7b5e 19be 1279 893d 5965 b63d be17 a63e
00000090: 3f4b 723e 549c 75be 8c25 b63d 03ac b3bd
000000a0: f41f 433d 7d66 eebd cbda 9f3e 7037 87be
000000b0: fa64 43bd d19c d2bc 721b 853d 8ddf b43c
000000c0: 991a 3ebe 440f 923e b75a bf3e cffa 9d3d
000000d0: ed3e b93e a138 edbd 229c 96bc fd4f 713e
000000e0: 4f22 643d c0e1 81be 921d 9d3e e642 a8be
000000f0: 5ef2 80be a625 bc3e 7346 993d 818d 1dbd

arith.constant1 f4 [64, 128]
-0.17574522 0.1615665 -0.072448514 -0.120009154 0.09035079 -0.0029784609 0.104577295 -0.051828075
-0.023798408 0.12892155 0.07091406 -0.15159006 0.11988141 -0.08735451 -0.052266855 0.03837048
0.01503211 -0.058626562 0.06957348 -0.044910934 0.098225035 -0.015559722 -0.0315794 0.10872984
-0.02036602 0.056800272 -0.024909008 0.08663496 -0.105659254 -0.14815499 0.16695112 -0.11889496
-0.15420474 -0.026357032 -0.04706269 0.12945461 0.069423355 -0.09554894 0.14688435 -0.11805831
0.15479815 0.00645457 0.17393403 0.17192385 -0.011176308 -0.11398869 0.032104023 -0.015436589
0.01974205 0.16610733 -0.12055531 -0.1139743 0.05660111 0.14717783 -0.07940868 -0.11312331
0.13080809 0.11393822 -0.10644859 0.09241331 -0.10785977 0.021689013 0.05606239 -0.14457585
0.065475754 0.1508968 -0.08632587 0.045254085 -0.13208479 0.08550385 -0.107866555 -0.00825092
-0.13592972 -0.1532688 0.1499431 -0.043314703 -0.16398185 -0.06954934 0.10273636 0.10114511
0.03739429 0.15680398 -0.16226009 0.032231756 -0.104457885 -0.08417445 0.16504708 -0.030172512
-0.022778945 0.061266195 0.077176996 0.027901033 0.14844893 0.045715455 0.12815681 0.042567935
0.17321792 0.0202972 0.097821996 -0.025009524 0.09620415 -0.023565678 -0.113526665 0.14140074
-0.026184136 -0.059621595 0.11059631 -0.06935835 -0.14801873 0.113522455 0.0787331 -0.175897
0.019682374 -0.091052175 0.1344723 -0.14421985 0.002216456 -0.11394033 -0.064121544 -0.014841359
-0.040639926 -0.0073868595 -0.020624742 -0.1791848 0.053395413 -0.027505977 0.091329366 -0.13304581
-0.037907362 -0.16690037 0.040867504 -0.048781786 -0.0955792 -0.027249275 -0.0030294687 -0.075362176
0.08507805 -0.054013982 -0.15393904 -0.12427913 0.010068609 -0.023492692 -0.1578547 0.10652757
-0.17802392 0.09979648 -0.11387087 0.10188762 0.082522586 -0.08920381 -0.17697497 -0.11417298
0.14558467 -0.11873709 -0.17939065 0.04777232 -0.01689067 -0.17025568 0.042947553 0.090560295
0.15678555 -0.15746737 0.026855655 0.08369004 0.038528014 -0.050661977 -0.031061286 -0.00797215
-0.14292404 -0.019782523 -0.0005805705 0.091058865 0.027477615 0.003299422 0.15204534 -0.17085911
0.039905746 -0.02274214 -0.0057233595 -0.11326384 0.0886781 -0.11377229 -0.029693386 0.04876493
-0.029951207 0.16094898 -0.105883494 0.07726313 -0.14508863 0.037863314 0.07340698 -0.011230691
0.058900744 0.05763892 -0.0032460752 -0.16584411 -0.047627844 -0.104969114 0.13702525 0.08848836
-0.0022005609 -0.02626819 -0.05268057 0.06717905 -0.03427541 0.101440884 0.05525696 0.15046938
-0.1384484 -0.03484311 -0.06400852 -0.02938664 0.07867487 0.16401306 -0.00062828785 -0.080190696
-0.09733471 -0.060889497 0.1472442 0.12062344 -0.13411853 0.047990408 0.1640101 -0.08377736
-0.07633336 -0.02965937 -0.09358158 -0.05085337 -0.13156831 0.006268628 -0.051995132 -0.04894745
0.089669414 0.12864195 0.14991866 0.111780204 0.11624845 -0.17466788 -0.14064007 0.12731332
-0.019311232 -0.052895688 -0.16233666 -0.006830204 0.1691071 0.11385815 0.058455803 -0.019544667
-0.10848687 -0.025667407 0.11166745 -0.13971423 0.06926213 -0.14556472 0.14459667 0.044904735
00000000: 8ef6 33be b071 253e e35f 94bd 5cc7 f5bd
00000010: d609 b93d 4832 43bb 9f2c d63d ad49 54bd
00000020: e1f4 c2bc 0304 043e 643b 913d 6d3a 1bbe
00000030: 6284 f53d ece6 b2bd c515 56bd 5d2a 1d3d
00000040: 3d49 763c 6822 70bd 8a7c 8e3d 87f4 37bd
00000050: 352a c93d 34ee 7ebc 6759 01bd c0ad de3d
00000060: a4d6 a6bc 67a7 683d fa0d ccbc ab6d b13d
00000070: e163 d8bd f1b5 17be 3cf5 2a3e 337f f3bd
00000080: d9e7 1dbe b4ea d7bc cfc4 40bd c08f 043e
00000090: d52d 8e3d 2aaf c3bd da68 163e 8ec8 f1bd
000000a0: 6883 1e3e dc80 d33b c31b 323e ce0c 303e
000000b0: d51c 37bc e772 e9bd 827f 033d bfe9 7cbc
000000c0: 14ba a13c 0a18 2a3e b4e5 f6bd 5c6b e9bd
000000d0: 91d6 673d c9b5 163e 05a1 a2bd 32ad e7bd
000000e0: 8ef2 053e 7158 e93d b801 dabd 3143 bd3d
000000f0: 95e5 dcbd 28ad b13c ada1 653d b10b 14be
00000100: 2718 863d b184 1a3e 9ecb b0bd 595c 393d
00000110: 3c41 07be a41c af3d 24e9 dcbd de2e 07bc
00000120: 2931 0bbe 7ff2 1cbe af8a 193e c26a 31bd
00000130: dcea 27be e26f 8ebd 7167 d23d 2b25 cf3d
00000140: c12a 193d 3991 203e 8227 26be 7205 043d
00000150: 04ee d5bd a763 acbd 1a02 293e 582c f7bc
00000160: e99a babc 43f2 7a3d f90e 9e3d b590 e43c
00000170: ff02 183e 2140 3b3d 8a3b 033e b75b 2e3d
00000180: 0a60 313e 5046 a63c e656 c83d c6e0 ccbc
00000190: ae06 c53d cf0c c1bc ab80 e8bd 5bcb 103e
000001a0: 1d80 d6bc c635 74bd 5180 e23d c00b 8ebd
000001b0: 3992 17be 767e e83d d23e a13d 581e 34be
000001c0: ee3c a13c 9079 babd 1bb3 093e 5eae 13be
000001d0: f641 113b 8c59 e9bd 2852 83bd 2c29 73bc
000001e0: 0d76 26bd 780d f2bb 38f5 a8bc 387c 37be
000001f0: 26b5 5a3d 3754 e1bc e40a bb3d 293d 08be
00000200: c044 1bbd eee7 2abe af64 273d 69cf 47bd
00000210: 07bf c3bd df39 dfbc 0d8a 46bb 7c57 9abd
00000220: 673d ae3d c43d 5dbd 32a2 1dbe 0e86 febd
00000230: cff6 243c bf73 c0bc aaa4 21be 202b da3d
00000240: e74b 36be 1962 cc3d 2135 e9bd 75aa d03d
00000250: 9a01 a93d 7db0 b6bd ed38 35be 86d3 e9bd
00000260: 2614 153e 6e2c f3bd 2fb2 37be e9ac 433d
00000270: 4d5e 8abc 8157 2ebe c6e9 2f3d ad77 b93d
00000280: 648c 203e 203f 21be 6400 dc3c af65 ab3d
00000290: 8dcf 1d3d ef82 4fbd 3d74 febc 9f9d 02bc
000002a0: ae5a 12be f50e a2bc 6d31 18ba 127d ba3d
000002b0: bc18 e13c 1e3b 583b c6b1 1b3e b1f5 2ebe
000002c0: 3574 233d b94d babc 058b bbbb dff6 e7bd
000002d0: dd9c b53d 7201 e9bd 8b3f f3bc bcbd 473d
000002e0: 3c5c f5bc cfcf 243e 72d9 d8bd 223c 9e3d
000002f0: 1d92 14be 9016 1b3d 6656 963d ef00 38bc
00000300: e841 713d ca16 6c3d 1bbc 54bb 0ad3 29be
00000310: 6a15 43bd 0cfa d6bd 5950 0c3e 6339 b53d
00000320: 4937 10bb 6330 d7bc 95c7 57bd 2b95 893d
00000330: 5f64 0cbd 3dc0 cf3d 1f55 623d a514 1a3e
00000340: 6bc5 0dbe a6b7 0ebd e616 83bd 40bc f0bc
00000350: 4a20 a13d 0af3 273e afb3 24ba 053b a4bd
00000360: 6c57 c7bd 4467 79bd 2fc7 163e 6c09 f73d
00000370: 5e56 09be 9791 443d 43f2 273e 7793 abbd
00000380: aa54 9cbd 35f8 f2bc b3a7 bfbd a04b 50bd
00000390: d8b9 06be 1069 cd3b d9f8 54bd 1f7d 48bd
000003a0: 99a4 b73d b7ba 033e 4784 193e 05ed e43d
000003b0: ab13 ee3d 23dc 32be f303 10be 6c5e 023e
000003c0: 9732 9ebc 26a9 58bd 953b 26be e7cf dfbb
000003d0: 692a 2d3e 762e e93d 5a6f 6f3d 231c a0bc
000003e0: 5d2e debd 7444 d2bc e7b1 e43d 3f11 0fbe
000003f0: 4ed9 8d3d eb0e 15be 2611 143e 07ee 373d

arith.constant2 f4 [128, 12]
0.06829827 0.04684757 -0.080459714 -0.16877955 0.038013477 0.16107452 0.032655936 0.16210257
-0.12751809 0.17989355 0.0037753214 -0.1325904 0.12531647 -0.17380112 -0.08253703 -0.038077015
0.18582803 0.09963194 -0.0061249086 0.10281166 0.1826513 -0.1966952 0.052381553 0.14686444
-0.004430419 0.004490035 -0.08549762 0.07308594 0.046967138 0.11662415 0.11991719 0.033552986
0.046319798 -0.25110206 0.038001657 0.16073604 -0.10302228 -0.08571916 0.2165803 0.15424438
0.21239093 -0.15553601 0.07886316 -0.018446766 -0.088227056 -0.009428495 -0.09053011 0.01102711
-0.18514313 0.06753653 -0.064831465 -0.11533209 -0.18290055 0.18421468 -0.0514551 0.03057489
-0.0013678861 0.18095487 0.1336246 0.09374423 0.057675235 -0.086395405 0.09545009 0.19315122
0.0986644 0.23885033 -0.08438927 0.019886456 0.07727052 0.009368153 -0.08356224 0.2101243
-0.08794533 0.103488654 0.09212854 -0.17532694 0.021370536 0.097443886 -0.012834101 -0.013507127
-0.11889251 0.10323889 -0.11818259 0.1338252 0.19780004 -0.0084940335 0.04773745 -0.00024311608
-0.20667078 -0.09970337 -0.054768197 -0.16823255 0.023302287 0.15951559 0.07874935 -0.10836024
0.13418508 0.06670416 0.031096457 0.067428105 0.15712708 0.08639035 0.14453653 -0.01561565
0.072057284 0.12891275 0.040366277 -0.028153868 -0.08016671 0.12811011 0.14332041 -0.055053975
0.11372781 -0.2123123 -0.008869938 -0.12391389 0.13171409 -0.18809594 -0.041919876 0.048021287
-0.059430297 0.18751334 -0.05761599 -0.13841546 0.03469373 -0.07688231 0.16468829 -0.025530081
0.071807556 -0.08864951 0.08235297 -0.13858652 -0.14657216 0.061139777 -0.014399525 -0.10173296
-0.040062074 0.09463695 0.03060058 -0.1452128 0.14244099 0.1613922 -0.15694126 -0.112216756
-0.11317631 0.117711306 -0.17447388 0.103125684 -0.12903017 0.09862116 -0.29537448 0.069021985
0.2894649 0.045829598 0.21357237 -0.17495483 -0.08646739 -0.19606166 0.00985614 -0.055293117
-0.06613768 0.11481447 -0.061447084 0.1309902 0.17742388 0.15757024 -0.01489886 -0.023266075
-0.015724322 0.040431693 0.07444663 0.1214544 -0.038416207 0.09205182 0.116464175 -0.17031838
-0.17271054 -0.19436924 0.1653771 -0.08973516 0.028523935 0.111333005 -0.1344501 0.06326226
-0.00066028646 -0.17379518 0.09845156 0.037997916 0.00015716643 0.036747232 0.042406004 -0.09572996
0.043577913 0.09766301 -0.054295477 -0.06833309 -0.12852941 -0.15719269 -0.07980667 -0.17565012
-0.036878727 -0.15609297 0.09957313 -0.1475329 -0.031297512 0.103292145 -0.18891549 -0.07281339
0.15451008 0.13292022 -0.2097122 0.1452254 -0.040326327 0.08330849 0.00493356 0.014260124
-0.004891622 -0.09797478 -0.021097941 -0.016909897 0.07669913 0.07704361 -0.19512278 -0.12118216
-0.13917594 0.13692708 -0.118173786 0.015286835 -0.07384146 0.039662212 0.19181961 0.16163312
-0.016391402 0.14655748 0.13255478 -0.092539236 0.033493567 -0.10495653 -0.14587225 -0.13081591
0.15264505 0.1688715 -0.1357858 0.02403686 -0.10236859 -0.16026166 0.09553726 0.1176815
-0.19114013 0.13823971 -0.10859664 -0.0524063 0.08444019 0.068837956 -0.08478555 0.07522721
00000000: f7df 8b3d 3de3 3f3d 10c8 a4bd 8cd4 2cbe
00000010: 05b4 1b3d b8f0 243e 3bc2 053d 37fe 253e
00000020: 1a94 02be 0436 383e 626b 773b c7c5 07be
00000030: f652 003e ecf8 31be 2d09 a9bd a5f6 1bbd
00000040: b449 3e3e d50b cc3d 75b3 c8bb eb8e d23d
00000050: f108 3b3e 776a 49be 0a8e 563d a263 163e
00000060: 0c2d 91bb 2521 933b 6019 afbd 15ae 953d
00000070: 9d60 403d a4d8 ee3d 2597 f53d db6e 093d
00000080: d4b9 3d3d 7390 80be a0a7 1b3d fd97 243e
00000090: 58fd d2bd 878d afbd 3ac7 5d3e 3df2 1d3e
000000a0: 027d 593e d544 1fbe 0283 a13d ac1d 97bc
000000b0: 63b0 b4bd f979 1abc da67 b9bd 0dab 343c
000000c0: 2996 3dbe 9850 8a3d 5cc6 84bd 3b33 ecbd
000000d0: 484a 3bbe c6a2 3c3e 95c2 52bd 3178 fa3c
000000e0: a44a b3ba 3c4c 393e e3d4 083e fafc bf3d
000000f0: de3c 6c3d 13f0 b0bd 567b c33d 6fc9 453e
00000100: 9010 ca3d 2e95 743e 48d4 acbd ece8 a23c
00000110: 0240 9e3d e27c 193c ae22 abbd d32a 573e
00000120: ae1c b4bd dcf1 d33d e3ad bc3d e888 33be
00000130: 4311 af3c a990 c73d 1f46 52bc ff4c 5dbc
00000140: eb7d f3bd e96e d33d b709 f2bd 7909 093e
00000150: 188c 4a3e 8f2a 0bbc 5888 433d faec 7eb9
00000160: 81a1 53be 4831 ccbd 9e54 60bd 2745 2cbe
00000170: 70e4 be3c 0e58 233e 5747 a13d f9eb ddbd
00000180: d067 093e 319c 883d ffbd fe3c bf17 8a3d
00000190: ece5 203e 6ced b03d 6201 143e c9d8 7fbc
000001a0: c592 933d b401 043e 1c57 253d f1a2 e6bc
000001b0: 722e a4bd 4c2f 033e 96c2 123e 4780 61bd
000001c0: 20ea e83d 6568 59be 3753 11bc 91c6 fdbd
000001d0: 0fe0 063e 399c 40be 2db4 2bbd f8b1 443d
000001e0: 2f6d 73bd 7f03 403e bffe 6bbd c8bc 0dbe
000001f0: 031b 0e3d 7974 9dbd 0ca4 283e 7624 d1bc
00000200: d70f 933d e08d b5bd ada8 a83d a0e9 0dbe
00000210: 0317 16be b46d 7a3d fceb 6bbc 5f59 d0bd
00000220: 2118 24bd 04d1 c13d 11ae fa3c aab2 14be
00000230: 0ddc 113e ff43 253e 36b5 20be e6d1 e5bd
00000240: fbc8 e7bd a012 f13d 48a9 32be 8f33 d33d
00000250: 7c20 04be e4f9 c93d 533b 97be 665b 8d3d
00000260: be34 943e d1b7 3b3d b7b2 5a3e 5c27 33be
00000270: d115 b1bd 63c4 48be a67b 213c 097b 62bd
00000280: 3173 87bd d923 eb3d f0af 7bbd 4c22 063e
00000290: 9bae 353e 185a 213e 591a 74bc 7f98 bebc
000002a0: 4bd0 80bc b49b 253d 7a77 983d 16bd f83d
000002b0: 505a 1dbd aa85 bc3d c584 ee3d f167 2ebe
000002c0: 08db 30be bb08 47be 9d58 293e 11c7 b7bd
000002d0: 07ab e93c 8f02 e43d 49ad 09be a58f 813d
000002e0: 1317 2dba 5df7 31be f9a0 c93d b4a3 1b3d
000002f0: 0bcd 2439 4484 163d ebb1 2d3d 120e c4bd
00000300: c17e 323d 8b03 c83d ef64 5ebd 38f2 8bbd
00000310: 379d 03be 1ff7 20be ae71 a3bd a0dd 33be
00000320: 260e 17bd d6d6 1fbe ffec cb3d dd12 17be
00000330: d231 00bd d58a d33d 1073 41be 301f 95bd
00000340: e437 1e3e 3d1c 083e ccbe 56be f8b5 143e
00000350: 382d 25bd a49d aa3d b3a9 a13b 4ca3 693c
00000360: e649 a0bb 00a7 c8bd 97d5 acbc a086 8abc
00000370: 6f14 9d3d 0ac9 9d3d 44ce 47be 5a2e f8bd
00000380: 2384 0ebe 9d36 0c3e 1905 f2bd a275 7a3c
00000390: 313a 97bd d874 223d 5c6c 443e 2783 253e
000003a0: 4347 86bc 2a13 163e 71bc 073e 3685 bdbd
000003b0: 8d30 093d 73f3 d6bd 895f 15be 9bf4 05be
000003c0: fc4e 1c3e a7ec 2c3e 6f0b 0bbe f3e8 c43c
000003d0: a0a6 d1bd a21b 24be 0aa9 c33d 0003 f13d
000003e0: 3dba 43be b68e 0d3e ea67 debd fda7 56bd
000003f0: faee ac3d eafa 8c3d 0ca4 adbd b910 9a3d

arith.constant29 f4 [64]
-0.005933586 0.0011485859 0.00020792021 0.009848705 0.0011714974 0.009277342 -0.13055696 -0.0503538
0.006155587 -0.0149711715 0.022277566 -0.010781796 -0.13635492 0.0014471094 -0.077672794 -0.0036527552
-0.08717479 0.007189533 0.011383846 0.003594622 0.019518035 0.016712816 0.0021147248 -0.024877768
-0.009676262 -0.0043600122 -0.0025735993 -0.016394535 -0.037560813 -0.0112764845 -0.100864485 -0.0016263999
-0.04443884 -0.015274498 -0.0020248576 0.03273868 -0.08927215 -0.0856362 0.0061877007 0.027114475
-0.024251617 -0.023068303 0.061878067 -0.088514894 -0.029994342 0.037466463 -0.0019570466 -0.0350494
-0.023166677 0.026406338 0.06054089 0.02939704 0.067979865 -0.02808442 0.011649026 -0.030642089
0.03459546 0.006460246 0.022937048 -0.07431007 -0.0084020225 -0.029746367 -0.06175657 0.0058897664
00000000: 876e c2bb 268c 963a 2805 5a39 765c 213c
00000010: ee8c 993a feff 173c b9b0 05be c93f 4ebd
00000020: ceb4 c93b a549 75bc 717f b63c 21a6 30bc
00000030: a0a0 0bbe efac bd3a ea12 9fbd 1063 6fbb
00000040: b288 b2bd 2d96 eb3b 5083 3a3c c093 6b3b
00000050: 49e4 9f3c 51e9 883c 3297 0a3b 76cc cbbc
00000060: 2f89 1ebc 6fde 8ebb d5a9 28bb d54d 86bc
00000070: 5ed9 19bd 01c1 38bc 0a92 cebd ed2c d5ba
00000080: 8005 36bd e341 7abc 79b3 04bb fe18 063d
00000090: 51d4 b6bd 0862 afbd 32c2 ca3b 2d1f de3c
000000a0: 54ab c6bc bdf9 bcbc db73 7d3d 4c47 b5bd
000000b0: b2b6 f5bc 6f76 193d cb41 00bb f68f 0fbd
000000c0: 0bc8 bdbc 1b52 d83c b9f9 773d 10d2 f03c
000000d0: 0739 8b3d 4c11 e6bc 8edb 3e3c 1e05 fbbc
000000e0: f8b3 0d3d 79b0 d33b 7ae6 bb3c e12f 98bd
000000f0: a3a8 09bc a7ae f3bc 75f4 7cbd f1fe c03b

arith.constant30 f4 [128]
0.0397578 0.049378052 0.009955815 -0.02520897 0.02275616 -0.057320043 -0.066189125 -0.018407231
0.10774849 -0.066344105 -0.0032412133 -0.0151141165 -0.051887125 -0.08949784 0.010691967 -0.07603932
0.015745334 -0.17288828 0.016399186 -0.028599339 0.0063815448 -0.034656603 -0.061863825 -0.06855569
-0.050139636 -0.051793046 -0.08771279 0.018257173 0.0021370314 0.047046717 -0.077335194 0.021575734
0.061892733 -0.010335898 0.061158467 0.013369338 0.029235085 0.0017170833 0.0082579125 -0.015190772
0.0064682965 0.007764229 -0.06563636 0.008441833 0.031655416 -0.023244638 -0.012786662 -0.024016187
0.004727164 0.012751483 -0.08123922 -0.005900793 0.05588299 -0.04648195 0.028549392 -0.029999137
0.067242965 -0.0059434017 0.051391415 0.020953616 -0.055144593 -0.010291392 0.021104833 -0.17273061
0.06476571 0.039782804 -0.0313815 0.075849354 -0.057809576 -0.10314461 0.025155835 -0.10508322
0.046752207 0.0052576247 -0.03180915 -0.07440107 -0.016822005 -0.027855277 -0.04540172 -0.08390532
-0.0043265834 -0.010674532 -0.025177352 0.0586891 0.06816944 -0.038973548 -0.04384426 0.007143845
-0.02196597 0.01315696 -0.005296603 -0.03520713 -0.026566738 0.014927639 -0.15412048 0.0065887216
-0.011579736 0.015122054 0.07197945 -0.046394378 0.11181016 -0.09378523 -0.0289065 -0.008142619
-0.025491871 0.010180849 -0.048041742 0.11733664 -0.006494285 0.011145721 -0.12816843 0.015889917
-0.13988169 -0.054301627 -0.0098524 -0.052346054 -0.042684916 0.05381569 -0.023067141 -0.050592273
0.048318405 0.061108824 -0.02144234 -0.00856195 -0.0061165695 -0.014588726 -0.16747986 -0.024515428
00000000: 13d9 223d a440 4a3d b71d 233c 0b83 cebc
00000010: 206b ba3c 6cc8 6abd 2a8e 87bd c3ca 96bc
00000020: 3eab dc3d 6bdf 87bd 896a 54bb 33a1 77bc
00000030: 9887 54bd a54a b7bd 5c2d 2f3c 81ba 9bbd
00000040: 5cfc 803c a009 31be 9657 863c 2949 eabc
00000050: 471c d13b 15f4 0dbd ec64 7dbd ed66 8cbd
00000060: 385f 4dbd f224 54bd c3a2 b3bd 1190 953c
00000070: 700d 0c3b 0fb4 403d ea61 9ebd 98bf b03c
00000080: 3c83 7d3d e657 29bc 4d81 7a3d 110b 5b3c
00000090: 6b7e ef3c c10f e13a 324c 073c b7e2 78bc
000000a0: 01f4 d33b 136b fe3b 5b6c 86bd 9d4f 0a3c
000000b0: 1ca9 013d 8a6b bebc 267f 51bc 98bd c4bc
000000c0: 53e6 9a3b 99eb 503c c060 a6bd 705b c1bb
000000d0: 90e5 643d db63 3ebd 6ae0 e93c c0c0 f5bc
000000e0: aeb6 893d dec0 c2bb ce7f 523d eba6 ab3c
000000f0: 4cdf 61bd 3a9d 28bc 0be4 ac3c 4be0 30be
00000100: e2a3 843d 4bf3 223d e389 00bd e856 9b3d
00000110: bcc9 6cbd 7b3d d3bd 9c13 ce3c df35 d7bd
00000120: 3e7f 3f3d 2748 ac3b 504a 02bd 975f 98bd
00000130: 4dce 89bc c030 e4bc 27f7 39bd 8dd6 abbd
00000140: 03c6 8dbb 3be4 2ebc bc40 cebc fb63 703d
00000150: 6b9c 8b3d baa2 1fbd 0a96 33bd ea16 ea3b
00000160: faf1 b3bc 4a90 573c 208f adbb 5a35 10bd
00000170: 7da2 d9bc 0e93 743c c2d1 1dbe 34e6 d73b
00000180: efb8 3dbc 7ec2 773c f669 933d 0808 3ebd
00000190: bafc e43d 7812 c0bd 53cd ecbc 9f68 05bc
000001a0: 54d4 d0bc 93cd 263c 6bc7 44bd 314e f03d
000001b0: 03ce d4bb 8b9c 363c 963e 03be 922b 823c
000001c0: 253d 0fbe 626b 5ebd f66b 21bc d168 56bd
000001d0: 61d6 2ebd d76d 5c3d 4df7 bcbc d839 4fbd
000001e0: 85e9 453d 3f4d 7a3d d9a7 afbc 6c47 0cbc
000001f0: 816d c8bb 8d05 6fbc d77f 2bbe 94d4 c8bc
