temp/chrome/optimization_guide_model_store/26/E6DC4029A1E4B4C1/0F5B804B37BC7DEC/model.tflite (tflite, 4856 bytes, 3 tensors)

prediction_model/dense/BiasAdd/ReadVariableOp f4 [64]
000000 6b 6a bc bd 4e 9d 34 bd 48 16 2a 3e a4 90 19 3e
       -0.09199985 -0.04409533 0.16610062 0.14996582
000010 e0 92 8f bd 01 53 b4 3e 00 00 00 00 00 00 00 00
       -0.07010436 0.35219577 0.0 0.0
000020 00 00 00 00 86 d9 4e 3e dc 40 cc bc 95 49 53 bf
       0.0 0.20200166 -0.024933271 -0.8253415
000030 39 e3 80 3d 2e ff 2d 3e ef 3a 8a 3e a7 92 a0 bd
       0.06293339 0.16991875 0.26998088 -0.07840472
000040 2c 9e 56 bd 34 00 88 bf 2a 7e cf 3e 2c 63 37 3d
       -0.05239694 -1.0625062 0.40525943 0.044772312
000050 02 71 c0 3e 83 a0 a7 bd 26 fc f1 3e aa 32 06 3e
       0.37586218 -0.08184912 0.47262686 0.13105264
000060 90 c4 d5 3d 84 d3 36 3e 8a 93 a4 3e 33 db bb 3d
       0.10437882 0.17854124 0.32143813 0.09172668
000070 d3 44 81 3e e5 61 0c be 2a 4c f5 3d c4 65 1c bb
       0.2524782 -0.13709219 0.11977418 -0.0023864368
000080 00 00 00 00 be d7 51 3d 43 47 a0 bd 0b aa df bd
       0.0 0.05123114 -0.07826092 -0.10921105
000090 17 65 af bd d7 71 8f bd ab fd 98 3e 3b 95 e1 3e
       -0.08564203 -0.07004135 0.29881033 0.44059166
0000a0 06 c8 e5 3d 65 85 c4 3e 01 b3 06 be e4 ae d9 3e
       0.11219792 0.38383022 -0.13154222 0.42516243
0000b0 4e b1 ae 3c af 76 97 bd 0a 75 b3 bc 00 00 00 00
       0.02132478 -0.07395684 -0.021906395 0.0
0000c0 5b 94 f4 3b a7 d4 8d 3e 8c cd e6 bc a8 23 bb 3e
       0.0074639744 0.27701303 -0.028174184 0.3655064
0000d0 2a c2 5f 3e 90 72 09 bd c8 0f 71 3e 00 00 00 00
       0.21851411 -0.03355652 0.23541176 0.0
0000e0 cf bb a6 3d d3 3a 1a bd 28 6d ed bd 42 9f 1a 3e
       0.081412904 -0.037653755 -0.115930855 0.15099815
0000f0 1d 84 c3 3e 98 df b5 bd 93 f6 58 bc 31 bc 8a bd
       0.38186732 -0.08880538 -0.013242382 -0.06774176

prediction_model/dense/MatMul f4 [64, 6]
000000 35 ed b2 bd d7 16 d6 bc aa 93 8c be 59 8a 29 3d
       -0.0873665 -0.026133938 -0.2745641 0.041391704
000010 4c 45 03 be 95 16 8e be 64 c5 b5 bf 51 28 b8 3e
       -0.12819403 -0.27751604 -1.4200864 0.3596826
000020 9b f2 3d 3f 38 b4 10 bf e9 0a 23 3f 37 15 a7 bd
       0.7419831 -0.5652499 0.6368852 -0.08158343
000030 9a b9 c6 3d 7c 67 a3 3d 4b b3 11 bf 9d 87 b6 3d
       0.097033694 0.079787225 -0.56914204 0.08912585
000040 3b 6f 49 c0 ed b8 a4 3e 99 f2 14 be bf 23 52 be
       -3.147414 0.32172337 -0.14545669 -0.20521449
000050 14 8f 29 bf 16 64 af 3e 4f 55 b1 c0 2b 5e e9 3e
       -0.66233945 0.34256047 -5.5416636 0.45579657
000060 c7 5b 20 bd 91 15 8b be 74 f2 1f 3e a2 f6 c2 bd
       -0.039150026 -0.2716489 0.15619832 -0.09519698
000070 a7 48 2c be 66 df 94 be 3c c9 d2 bd 0d 80 0b be
       -0.1682459 -0.2907669 -0.10292289 -0.13623066
000080 e4 d5 16 bf fb d8 62 3e 2e 77 b3 c0 d9 68 71 3e
       -0.5892012 0.22153084 -5.6082983 0.23575152
000090 36 9d 88 be 3e 44 1c be f0 5b dd 3d bb 33 15 be
       -0.26682442 -0.15260407 0.10808551 -0.14570515
0000a0 ba 61 63 be 90 0e 31 be 28 01 25 3d e8 ea 6d be
       -0.22205248 -0.17290711 0.040284306 -0.23234141
0000b0 d6 7c b2 bd 6d 05 80 be 1f c2 79 be 50 26 4d be
       -0.08715217 -0.2500414 -0.24390458 -0.20034146
0000c0 68 c2 16 3d ea 14 88 be c0 33 af bd 52 19 37 be
       0.036806494 -0.26578456 -0.085547924 -0.17880753
0000d0 36 18 86 3e 38 43 ac bd 3b 85 18 be 14 fa 32 be
       0.26190346 -0.084112585 -0.14894573 -0.1747821
0000e0 51 95 09 bf 00 a9 a2 bd 82 df 2d c0 70 3e 0f 3f
       -0.53743464 -0.079423904 -2.7167668 0.5595465
0000f0 28 47 43 3e 75 8e 4c be df 90 f9 3d db 97 0a be
       0.19070113 -0.19976218 0.12185835 -0.13534491
000100 f0 b5 91 be ad 2f 8a be f5 0a f2 be 7a 0f 2b bd
       -0.2845912 -0.269895 -0.47273985 -0.041762806
000110 ae 71 36 3e 2c 88 57 3f 79 bd 7a bb 0e 37 01 3f
       0.17816803 0.84192157 -0.0038259907 0.5047463
000120 f0 e6 c9 bb 49 00 bc bd 86 a9 0b bf 0d 9f 10 3d
       -0.006161563 -0.09179742 -0.5455555 0.035307933
000130 ce d8 30 c0 1a 2e 22 3f c4 ad 15 3e 7f 36 f0 3d
       -2.7632327 0.63351595 0.14617068 0.11729144
000140 d9 65 fa be ca de b1 3d 27 e6 4c c0 f5 86 9a 3e
       -0.4890583 0.08685072 -3.2015474 0.3018109
000150 cc d2 5d 3e e5 a4 9f 3d a4 e0 21 bf 22 1a 3a 3e
       0.21662444 0.07795123 -0.632334 0.18174031
000160 f4 4c 1f c0 58 fc 27 3e b4 6a 06 c0 84 5d cb 3e
       -2.4890718 0.16404855 -2.1002626 0.39719784
000170 1b 09 4f 3f 8b 28 0b bf 2a d8 ed 3e fd 3a 62 be
       0.8087327 -0.5435874 0.46453983 -0.22092815
000180 41 ec 95 bd 22 31 84 be 79 1e 42 3e 8f 93 1c be
       -0.073204525 -0.25818735 0.18956937 -0.15290664
000190 10 d5 56 bd 30 9d 56 be c4 e8 95 bf bc ea a4 3d
       -0.052449286 -0.209584 -1.171166 0.080525845
0001a0 fb 47 72 3e eb 7b 3f 3f 91 55 9b bd 56 54 20 3f
       0.23660271 0.7479846 -0.0758468 0.62628686
0001b0 7c b6 91 3c 86 6b 97 bd f4 e6 8e bd 3d cf bd 3e
       0.01778721 -0.07393555 -0.069776446 0.37072173
0001c0 33 42 37 c0 f6 b8 07 bd e4 e2 1b 3b b3 83 ed bd
       -2.8634155 -0.033135377 0.002378636 -0.11597385
0001d0 40 96 36 c0 93 df 1c 3f d5 4a 74 3f f3 6c e9 bd
       -2.8529205 0.6127865 0.95426685 -0.113977335
0001e0 5d 88 e2 3d 0c 65 22 be be d5 81 bd af ed 26 3e
       0.110611655 -0.15858859 -0.06339596 0.16301607
0001f0 f2 35 26 c0 9f 43 91 3d 63 ba e1 3e d9 cc 0c bf
       -2.5970426 0.07092976 0.44087514 -0.5500007
000200 36 49 13 3f 85 0b e5 be 39 32 93 be 8c 61 3f 3f
       0.57533586 -0.4473535 -0.28749254 0.7475822
000210 e8 46 25 3e 1a 60 12 be 62 f9 41 3d d0 35 bb 3e
       0.1614033 -0.14294472 0.04735697 0.36564493
000220 fa 13 2b c0 f9 94 5a 3c a1 94 87 be df f8 15 be
       -2.6730943 0.013341182 -0.26480582 -0.14645718
000230 eb 86 41 bf cb 08 d9 3e ee 4f be c0 1e 9c e4 3e
       -0.75596493 0.4238952 -5.947257 0.44650358
000240 c8 bf 90 be c4 b9 08 be b2 a3 15 c0 bb da c0 3e
       -0.28271317 -0.13352114 -2.3381162 0.37666878
000250 4f b6 4a 3f 5b 12 11 3e 4a b9 02 3f 28 cf ab be
       0.7918443 0.14167158 0.5106398 -0.33556485
000260 22 ea 0c 3f d7 34 42 3f 6a e7 a0 bf 64 67 42 bd
       0.5504476 0.7586188 -1.2570622 -0.047461882
000270 94 03 a4 bc 22 db c3 3b e9 36 32 3e 3c 1a aa 3e
       -0.020021237 0.0059770504 0.17403759 0.3322314
000280 a6 95 25 c0 33 85 f7 3d da 22 22 3f 04 17 73 be
       -2.5872588 0.120859526 0.6333443 -0.23739249
000290 5e 40 10 3f 63 9b 4e 3f d2 b5 a6 bf 62 7a f4 bd
       0.56348217 0.8070585 -1.3024237 -0.11937405
0002a0 1e 19 42 bf b1 cb f0 3e 24 9b a8 3d 7b 7a 63 bf
       -0.75819576 0.47030404 0.08232716 -0.88858765
0002b0 47 cc 6a 3f 7b b5 fe be 51 03 f3 bd 9c 64 6d bd
       0.9171795 -0.49747834 -0.11865867 -0.057957277
0002c0 a2 72 63 be 18 dc c3 3d 84 6c 31 bc d4 cc 3f be
       -0.22211698 0.09563464 -0.010829095 -0.1873048
0002d0 ad 9f 3f 3e b4 e9 70 3e f0 70 10 bf 7f b8 e0 3d
       0.18713255 0.2352665 -0.5642233 0.1097269
0002e0 bd 2e 4a c0 e2 56 2a 3e 93 40 13 c0 c3 32 91 bb
       -3.1591027 0.16634706 -2.3008163 -0.0044311
0002f0 76 1a 00 c0 c2 d2 90 3e e4 c2 92 3f ea 85 14 3e
       -2.001615 0.28285795 1.1465726 0.14504209
000300 8e 9e 91 bd 9c 2c bf bd eb d9 58 be 60 32 85 bd
       -0.0711032 -0.093346804 -0.21176879 -0.06503749
000310 90 3d f1 3d 3a 1c 2e be 60 a7 a1 bf 65 fd b1 3e
       0.1177932 -0.17002955 -1.2629204 0.34763637
000320 4d 00 37 3f d1 41 11 bf 2b d0 25 3f eb 2d 89 be
       0.71484834 -0.5674105 0.64770764 -0.26792845
000330 ce 48 83 3d 1c 2c a3 bd 80 ab 5b 3d cc 03 fc 3b
       0.06410371 -0.079673976 0.053630352 0.0076908823
000340 af d4 7a be 82 bd 7f be e9 65 1e 3d 02 22 a4 3d
       -0.24495195 -0.24974635 0.038671408 0.08014299
000350 c2 7b c2 bd f2 59 8a be dd c6 65 be 28 8f 0e be
       -0.09496261 -0.27021748 -0.22439142 -0.13921797
000360 b4 04 29 3e 93 f9 77 be 8a 89 0e 3b 65 55 93 be
       0.165057 -0.24216299 0.002174946 -0.28776088
000370 b8 ce 5d 3e 60 9d a8 bd 55 98 aa bf 55 d9 c1 3e
       0.21660888 -0.08233142 -1.3327738 0.37861124
000380 a8 bb 3d 3f a9 e9 14 bf 57 ed 26 3f 01 ed eb bd
       0.74114466 -0.5816904 0.652059 -0.11519814
000390 9a ac 32 3e 2d fc df 3d 81 46 21 bf 88 35 36 3e
       0.17448655 0.109367706 -0.62998205 0.17793858
0003a0 5f e4 39 c0 0e 40 20 3d 30 71 54 3e f7 eb c4 bd
       -2.9045637 0.039123587 0.20746303 -0.09615319
0003b0 b6 5f 1d bd ad 90 76 3e c0 20 22 c0 84 06 a1 bc
       -0.038421355 0.24078627 -2.533249 -0.019656427
0003c0 dd 74 11 bd 6c dc 8c 3c 92 3e 04 bf 5f 06 a1 3d
       -0.03551184 0.01719495 -0.51657975 0.07862543
0003d0 99 b7 3b c0 f2 81 03 3f 0c 6a 49 c0 bb 3e 78 bd
       -2.933081 0.51370156 -3.1470976 -0.0606067
0003e0 37 13 1f 3f f3 f8 0b bf 68 29 04 3f d9 3b 23 be
       0.62138695 -0.5467674 0.5162568 -0.15940799
0003f0 3f 59 b6 bf ad da a6 3e 6b a5 2c 3f 51 b6 f7 be
       -1.4245986 0.3258871 0.6743991 -0.48381284

prediction_model/logits/MatMul f4 [1, 64]
000000 3d c3 69 3e 2c 16 83 3e 35 96 6c be e6 9e b3 be
       0.22828384 0.25602853 -0.23104174 -0.35082167
000010 ee b4 0e 3e 18 ab 8e be e2 05 87 be 18 ec 98 3e
       0.13936207 -0.2786491 -0.26371676 0.29867625
000020 33 8b 09 be c9 15 93 be 44 89 35 3d b3 83 73 3f
       -0.13432007 -0.28727558 0.04432036 0.9512283
000030 8f 47 83 be d0 aa 6f be d5 8a 81 be 09 30 89 3e
       -0.25640532 -0.23405004 -0.25301233 0.2679446
000040 bc d3 57 3e 07 0d ed 3f 16 ca 67 be c1 bf 72 bf
       0.21076864 1.8519601 -0.22635683 -0.94823843
000050 0c 23 3d be f2 04 bb be 4d 06 86 be 73 b9 a6 be
       -0.184704 -0.3652721 -0.26176682 -0.32563362
000060 6f 32 ea be ae bf 8e be c6 e9 71 be 3a fa 9d be
       -0.45741603 -0.27880615 -0.23624334 -0.3085497
000070 5a 11 b9 3e fc f2 07 3e a1 15 48 be c9 16 6b bf
       0.3614605 0.13276285 -0.19539501 -0.9183164
000080 44 67 8d 3e fc d9 83 3e b9 6d f8 3d f4 e8 fc bb
       0.27617848 0.25752246 0.12130303 -0.0077182
000090 9e dd 5f 3e c5 13 63 3e 2e 81 5d be 4a 78 72 be
       0.21861884 0.2217551 -0.2163131 -0.23678699
0000a0 e2 90 83 be a4 87 cc 3e 77 59 4a 3e fa a4 92 be
       -0.25696474 0.39947236 0.1976069 -0.28641492
0000b0 b3 37 3b 3e 1b 1c 0f 3e eb ee 7b 3e 1c 4e a8 bd
       0.18282966 0.13975565 0.24602859 -0.08218023
0000c0 0b 22 76 bf 77 6b 73 be 3a a8 41 be 93 59 88 be
       -0.96145695 -0.23771463 -0.1891183 -0.2663084
0000d0 70 9b 8f be 45 01 5c 3e 7f b3 33 c0 28 d6 28 3d
       -0.28048277 0.2148486 -2.8078306 0.04121986
0000e0 03 ba 87 bf f2 2d 59 be 91 b3 42 36 f7 e8 90 be
       -1.0603641 -0.21208933 2.9012774e-06 -0.28302738
0000f0 c1 03 98 be 28 7d 72 3e ed 89 91 3e 56 e7 d7 3c
       -0.29690364 0.23680556 0.28425542 0.026355427
